weights/model_BCELoss().pkl (torch_old, 845934 bytes, 12 tensors)

encoder.0.weight f4 [16, 3, 3, 3]
00000000: 6d47 72be 6392 42be 0770 47be 6e45 c5be
00000010: f919 0bbf 77a2 16bf 8aec 19be 7568 07be
00000020: ff1b 4bbe 7a2d 8d3e a185 e33c 282e 343e
00000030: ab95 14be 3010 1ebf fceb c7bd fa51 cb3d
00000040: cc0c e23c f804 be3d 2a4c 463d eba6 cf3c
00000050: 6e2c 2b3e 8ff8 76b9 ae7f fbbe 01ee 623d
00000060: 1d40 783d 78fe 10bc 13b4 5a3e 1fc3 7b3d
00000070: 2a7c 74be 2d34 bcbd 5acd bcbd 55d1 25be
00000080: 6125 aa3e 9883 453e ce2b 03bd c71d 983d
00000090: 0ad0 df3d 3559 49be f575 43be 7aad 0dbe
000000a0: ba6a 48be be7e c03e c275 263e 74f5 15be
000000b0: 7694 9fbd 3535 78be 7f86 81bd 78ce bf3e
000000c0: 1ef2 a8bd 4eae 9b3e ea4c 3e3f 67fe 71be
000000d0: d16e 82bd d5a0 d43d 7e0f 283e dee5 083f
000000e0: 9c91 903e 1590 9cbd 9797 a73e 6aa7 023f
000000f0: 9639 00bf 2537 5fbf 6053 a4be 36e6 d73d
00000100: c7ab 8c3e 1b37 af3e 4141 87bc 6e9f b23d
00000110: 2637 b03e 2b4a 74be 07dd 58bf c28d d7bd
00000120: ba5b fd3d 5cd1 4f3e e7b7 11be 67f9 443e
00000130: 6e45 bbbd c257 febd 8f81 783e 0523 82be
00000140: 25f9 5cbe 8209 cfbd 8c8e edbd 15d3 5b3d
00000150: aab9 a7bd 44fa 233e f65f 003d b110 77bd
00000160: 8da5 183e 37da 523d 1265 87bc 02ab 9c3c
00000170: d61c 2dbd d3a2 15bd 4d1a 883e bdf3 5a3c
00000180: 6305 d83c 3a82 f8bd 2b2f f33d b134 55bd
00000190: a93a 883d 64f6 c6bd 793e 1a3d 14ec 2f3e
000001a0: ec6c a0bc bd20 3fbd 8532 2b3d 13b5 b53d
000001b0: 27d6 7d3d 8cef 3cbd 0b28 0abd 8daf 463c
000001c0: eacc b2bd 5769 a63c 2b42 fabd dc06 173e
000001d0: 1fe3 253f aff4 cbbc 318d e0bb 6f12 1f3e
000001e0: 5d76 2ebd f717 683c 6d46 783e 53e0 253e
000001f0: 1f60 913e 5783 b13f 90b5 60bd 54ae 603d
00000200: cd7e 16be 870c efb9 ce0c 5dbd 445a 1dbd
00000210: f436 00be 9c76 e8bd 65c5 953e 0521 3ebd
00000220: 27e6 da3e 004f 9cbb b32b 013f 58ce ab3f
00000230: 431e fc3e 476f 18be ea58 123f 4cb2 0e3c
00000240: c3ab 0abe f409 dabb 3d7f 15be b1da 92bd
00000250: f7c7 a73e b87a f93c 7c86 81bd aa2e 4cbd
00000260: 85e9 51be 4611 343d d4e1 743c 0383 aebc
00000270: 6168 c9ba 63e0 2fbd 268c 983d c801 0b3d
00000280: 33db 4a3c 1ab3 41bd d0ac 053d 4ac0 3d3d
00000290: d25c d5bd d703 eabd 01ae 2c3c 8dc9 8a3e
000002a0: 55e9 6abc 526d b63d 8f0a 6ebe 927a 963d
000002b0: 502b 03be a17d e3bd a76f 59bc 0fc4 ffbd
000002c0: 9adc 093f 4289 4e3d d080 05be 3643 20be
000002d0: 7fbd cbbd b67c 763c 696d d53e b4f8 e83d
000002e0: 12ae a23e e3cc 9b3f 8e68 b7bd 36d6 46bb
000002f0: fa75 123f f4e7 613d b80d 8abd 8c2e 973a
00000300: 6b9f f8bd fea5 2c3d 4f00 173e 2745 81bc
00000310: 671a 2a3c e29e 97bd 9a98 7a3d 2c5b 54bc
00000320: c08e f4bd 7b3c 053d 5e87 64bc b67b 03bf
00000330: b536 92be d633 9cbe ae23 a6bf 28d2 eebd
00000340: dacb 523d 2292 f03d fec9 b33c dc14 a43d
00000350: bb69 033e 9023 f83d 2794 163d c7b8 eebe
00000360: 523b 833e a77d 893e 9965 81be 84d9 2c3f
00000370: 7911 b93d 90a9 6cbf c24c e43e 2d51 0d3e
00000380: 4e86 d5be 31d9 5c3e 9e0b 703e e142 4fbe
00000390: 7959 e13e cda4 e2bd 98d2 82bf 40c8 943e
000003a0: 67f5 103e 6480 f2be bc1c 15bf 7bd7 87bd
000003b0: c7dd 0a3e 1963 4bbe 6792 ba3e d8ab 25bd
000003c0: 42d8 fcbe 0316 9f3d 3810 4a3e a82a ac3d
000003d0: 0939 e43d 43af 9f3d 2d4f 383d 1c4a 113d
000003e0: 87b6 7ebe 2340 a43d e53a 46be b379 38bf
000003f0: d171 d6bb 803a c2bc d3c8 e6bc 1001 8e3c
-0.2366006 -0.19001155 -0.19476329 -0.38529533 -0.54336506 -0.5884165 -0.15031639 -0.13223441
-0.19834898 0.27573758 0.02777368 0.17595732 -0.14510219 -0.6174345 -0.09761807 0.09927745
0.027593993 0.092782915 0.04841248 0.025348147 0.16716167 -0.00023552983 -0.4912085 0.05540276
0.06060802 -0.008849733 0.21357755 0.06146538 -0.2387549 -0.09189639 -0.09218855 -0.16193135
0.33231643 0.1928848 -0.032024197 0.074275546 0.10928352 -0.19662936 -0.19087966 -0.13835707
-0.19571963 0.37596697 0.16255859 -0.14644414 -0.077919886 -0.24239047 -0.06324481 0.3746221
-0.08249305 0.3040642 0.7433611 -0.23632203 -0.06368793 0.10382239 0.1641216 0.5347575
0.2823609 -0.07644669 0.3273284 0.51036704 -0.5008787 -0.8719352 -0.3209486 0.10541956
0.27474806 0.3422173 -0.016510608 0.08721815 0.34417075 -0.23856418 -0.8471226 -0.10525085
0.12371011 0.20294708 -0.1423031 0.19235764 -0.09144102 -0.12419082 0.24268173 -0.25417343
-0.21579416 -0.10109235 -0.11599454 0.0536681 -0.081897095 0.16013438 0.031341515 -0.060318653
0.14906903 0.051477637 -0.016527686 0.019124512 -0.04226383 -0.036532234 0.26582566 0.013363776
0.026369756 -0.12134214 0.11874231 -0.052052204 0.066518135 -0.09714964 0.037657235 0.171799
-0.019583188 -0.04666208 0.041796226 0.08872428 0.06197181 -0.046126887 -0.033729594 0.0121268155
-0.087304905 0.020313902 -0.12219652 0.1474871 0.64799684 -0.024896948 -0.006852769 0.15534376
-0.04259335 0.01416587 0.24245615 0.16198854 0.28393647 1.3868207 -0.05486065 0.054853752
-0.14696808 -0.00045594966 -0.05396729 -0.038416162 -0.12520963 -0.11350748 0.29252163 -0.04641821
0.42753717 -0.0047701597 0.50457305 1.3422346 0.49241838 -0.14886199 0.5716692 0.0087095015
-0.13542084 -0.0066540185 -0.14599319 -0.07170618 0.3276975 0.030454025 -0.06324479 -0.04984919
-0.20499237 0.043961786 0.01494642 -0.021302706 -0.001536619 -0.0429386 0.07448606 0.033937246
0.012381363 -0.047289945 0.03263551 0.04632596 -0.10418095 -0.11426514 0.010539533 0.27106896
-0.014337857 0.0890757 -0.23246215 0.07347597 -0.12809491 -0.11107946 -0.013271249 -0.12488567
0.53852236 0.050423868 -0.1303742 -0.15650639 -0.09948253 0.015044382 0.41685036 0.11375561
0.3177343 1.2171901 -0.08955489 -0.0030340082 0.5721127 0.05515285 -0.06740898 0.0011534258
-0.121397816 0.04215049 0.14746211 -0.015780045 0.010382271 -0.07403351 0.06118069 -0.01296119
-0.1194129 0.03252838 -0.01394829 -0.5136064 -0.28557363 -0.30508298 -1.2979639 -0.11661178
0.05146394 0.117466226 0.021946903 0.08011791 0.12833302 0.12116158 0.036762383 -0.4662535
0.25631195 0.26853678 -0.25272825 0.675194 0.09036536 -0.9244623 0.44589812 0.13800497
-0.4170403 0.21567227 0.23441932 -0.20240356 0.44013575 -0.110665895 -1.0220518 0.2905903
0.14156114 -0.4736358 -0.5824697 -0.066328965 0.13561164 -0.19862022 0.3643982 -0.040447086
-0.49383742 0.0776787 0.1973275 0.084065735 0.11143691 0.077971004 0.044997383 0.035471067
-0.24874316 0.080200456 -0.19358404 -0.720607 -0.0065443297 -0.023709536 -0.028171932 0.017334491

encoder.0.bias f4 [16]
00000000: a5be de3e 8d35 f93e e2b0 733b ec2e 8b3f
00000010: 0f07 3f3f 790d 223f 681d 183f 2ec3 da3e
00000020: 68cb 07bf d6d6 953f 5bb7 563f 6c97 0f3f
00000030: 5e27 313f 99d3 833f 433c 133f 9aae 583f
0.43504825 0.48673669 0.0037184288 1.0873694 0.74620146 0.6330181 0.5941987 0.42727035
-0.5304475 1.1706188 0.8387353 0.56090426 0.69200695 1.029895 0.5751383 0.8464142

encoder.2.weight f4 [32, 16, 3, 3]
00000000: a850 abbc 75bf 9a3d d1c3 303d 5661 1ebe
00000010: 69e7 cc3d 58ae 6ebe eadc 79bc 41ac 4f3e
00000020: 42af af3d 27f8 be3d 5438 42be ecbc 283d
00000030: 4686 b2bb 9597 e1bc bc01 143e e67d 4fbd
00000040: 3ab5 88bd 71ef 313d ef7d b3bc 0be7 523d
00000050: 0a9b 4a3e da36 ee3d 9510 c83c f8a9 e2bd
00000060: 06d2 c73d 9035 383e 55e9 e63d 0a52 d83c
00000070: 08a3 913d 6cba 293e c4b7 fabd 8b02 6d3e
00000080: 27a4 7c3e e168 c4bb e0be c53e 4f5a bf3e
00000090: 27f7 63bd cbdd 00be 22a5 8e3d b553 51bd
000000a0: 0109 e1bc fbff 683e 6c6a a43d 5e17 863b
000000b0: b929 a4bd 6b71 c43a 53e7 7cbd e89a a8bd
000000c0: da32 2f3d 7708 cabd 4f99 3f3e bb0c 99bd
000000d0: ecc3 22be b37b f4bd f2f0 72bd 3045 7ebd
000000e0: bd09 52bd 1374 32bd efce 623d f427 043e
000000f0: c529 28be fee0 b8bd fc0d bebb 4c06 10bd
00000100: 4b7f e4bc 7b65 41bd bfb7 9bbd 3f53 1fbe
00000110: a346 2dbd 0c70 ccbc 4525 a0bd 1710 c0bc
00000120: 540b 643d d665 403e e9cf d73d b651 863d
00000130: c181 33be 3969 1e3e d2b4 eb3c 5acf 1b3e
00000140: b321 613e 3b1f 39bc 433a 3b3e bff3 c7bc
00000150: f98c 25be 64e2 743e 9099 333c 6d70 49be
00000160: bd5f df3d eea9 af3d a772 833c 086b 233e
00000170: 4894 3a3e 95c4 08bd 7caf c5bd 99f4 0e3d
00000180: cd33 25bd 9d95 3d3c 2023 a83d 84e9 2cbd
00000190: ba5c 463e 277f 83bb 058c d43b 7074 443e
000001a0: 18ef 853d ec86 1ebd 3107 84bc 185f 8b3d
000001b0: 4120 8c3d 9a33 1bbc e42f b6bc dfad bc3e
000001c0: 54fe 903d 6bb8 f83e 1015 fc3d f2e8 55bd
000001d0: b132 c73d 1a83 0a3d 6e22 c03d 35a7 aa3c
000001e0: c5c6 41be c3cb 7abd 6b90 06be 2120 1d3e
000001f0: edec 4d3e e8ef 313e 60e4 8a3d 2222 79be
00000200: 187d 43bd d3c5 5b3d df45 61be f61e f93d
00000210: 1eaf 7b3b 54b1 66bc 356e eb3c ccc1 603d
00000220: b598 51bc b058 fcbd b4f9 b53a 9d61 9f3d
00000230: 6341 913e 4b67 5cbd ad13 8abc 5bde 9dbe
00000240: 2fdb bdbc e856 243d 23c9 0f3e b2dd 97bc
00000250: 9c65 123e 3930 18be 1ce0 d4bd 49a8 ac3d
00000260: e722 173e c1b3 64bd 7f60 063c 6456 bb3b
00000270: 877c b9bc 9194 9b3e 5958 f8bd 196b 03bd
00000280: ca56 063e 0941 303d 233d 7d3a 4fa3 413d
00000290: fb9c 8a3d 1f64 5a3d 67f5 eabd d5a1 31bd
000002a0: 2904 963b 1055 d43d 9da4 1c3e ca75 843d
000002b0: f831 043c dd5a 6d3e 0bf2 293d 1ff2 e9bd
000002c0: 73db ae3d a6c2 3a3d 4c60 4d3d fac4 db3d
000002d0: 41b4 da3c 7354 23bc f36e b53d 6256 7dbd
000002e0: 5ea8 a4bd 9e59 b0bc 6324 ee3c 87ad 95bd
000002f0: b252 2c3c 264b 32bd 3f3e 073d 4d69 01bd
00000300: 75e1 71bb 1911 8b3d cb10 c5bc 5ba6 783d
00000310: 546b c33c 7ee9 333d e066 89bc 1525 e2bb
00000320: 9b7a 91bd 16e3 913d 2e2e 863e 2b6d 033e
00000330: e716 82bd 7a0b cb3d 5b04 753c 878c f23b
00000340: dd1d 3fbe b154 d93d 6bf1 6b3c 6f7e 1dbd
00000350: 0736 643d d4ba 45bd 0d66 043e 9b50 453d
00000360: 4a33 1c3d 4371 1d3d 4ad1 983d 2be4 053e
00000370: d720 6fbe 88dc aa3e 24f4 383d 04b9 2b3d
00000380: cbe9 023e 1e11 483c 0c1b 36bd 0a2f b23d
00000390: 2294 c4bc 540e c7bd ef2a 5dbd 352f 56bd
000003a0: 7166 bf3c 9d03 91bd 45a1 c23d ecd5 3f3e
000003b0: d0cb ab3e fc9e 553e 5f0c e93e 8874 d43d
000003c0: fc8f f63d d063 943e a99b d43e 47e5 9c3d
000003d0: 9e0e 133e 7f2e f5bd 6000 633d b61e 333e
000003e0: 1249 80bd ca44 613d 98e0 ffbc 74c9 3fbe
000003f0: 067a bd3d 2ed8 8abd 2e28 cbbc f3ff f8bc
-0.020912483 0.07556049 0.043155495 -0.15466818 0.100050755 -0.23308694 -0.015250424 0.20280553
0.0857835 0.09324675 -0.189668 0.041195795 -0.0054481355 -0.0275381 0.14453787 -0.050657175
-0.06675191 0.04344124 -0.021910636 0.05148987 0.19785705 0.11631556 0.02442197 -0.11067575
0.09756856 0.17989182 0.11274973 0.026406307 0.07111174 0.1657502 -0.12242082 0.23145501
0.24671994 -0.005993948 0.3862219 0.37373587 -0.055655625 -0.12584607 0.0696509 -0.05110522
-0.027470114 0.22753899 0.08028111 0.004092141 -0.080157705 0.0014987414 -0.061744045 -0.08232671
0.042773105 -0.09864896 0.18710826 -0.07473131 -0.15895051 -0.11937656 -0.059311815 -0.0620777
-0.05127882 -0.04356773 0.05537313 0.12905866 -0.16422184 -0.09027289 -0.005800007 -0.035162255
-0.02789273 -0.04721592 -0.07603406 -0.155591 -0.042303693 -0.024955772 -0.078196086 -0.023445172
0.055674866 0.18788847 0.105377026 0.06558554 -0.17529966 0.15469827 0.028772745 0.15215817
0.21985511 -0.01129895 0.18283944 -0.02440822 -0.16167058 0.23914486 0.010961905 -0.19671793
0.109069325 0.085773334 0.016045881 0.15958798 0.18220627 -0.0333906 -0.096526116 0.034901235
-0.040332604 0.011571315 0.082098246 -0.042214885 0.1937131 -0.0040129605 0.006486418 0.19185042
0.06539744 -0.03870289 -0.01611671 0.06805247 0.068420894 -0.009472752 -0.022239633 0.36851403
0.07079759 0.485782 0.12308705 -0.052224107 0.097264655 0.033816434 0.09381567 0.020831684
-0.18923481 -0.06122948 -0.13141029 0.15344287 0.20109911 0.17376673 0.0678184 -0.24329427
-0.04772672 0.053655457 -0.2199931 0.121641085 0.0038403939 -0.014080364 0.028739074 0.05487232
-0.012792756 -0.12321603 0.0013883621 0.0778229 0.283702 -0.053809445 -0.016855085 -0.30833706
-0.023175804 0.040121943 0.14041571 -0.01853833 0.14296573 -0.14862145 -0.10394308 0.08430535
0.14759408 -0.05583549 0.008201717 0.0057170857 -0.022642387 0.30386785 -0.12126226 -0.03208456
0.13119045 0.043030772 0.0009660294 0.047274884 0.06768223 0.05331814 -0.11472588 -0.043367226
0.0045781326 0.10367787 0.1529717 0.06467779 0.008068554 0.23179193 0.041490596 -0.11423134
0.0853795 0.045595787 0.050140664 0.1073093 0.02669728 -0.009968865 0.088590525 -0.06184996
-0.08039926 -0.021527108 0.029070085 -0.07308488 0.010517763 -0.0435287 0.033018347 -0.031594563
-0.0036908065 0.067903705 -0.02405586 0.060705524 0.023854889 0.043923847 -0.016772687 -0.006901393
-0.07103463 0.07123391 0.26207107 0.12834613 -0.063520245 0.09914298 0.014954652 0.007402006
-0.18663736 0.10611857 0.01440082 -0.038450655 0.055715587 -0.048273876 0.12929554 0.048172574
0.03813485 0.038438093 0.07461794 0.1307532 -0.23352371 0.33371377 0.045154706 0.04192449
0.12784497 0.012211112 -0.044459388 0.08700378 -0.023996416 -0.0971953 -0.053996023 -0.052291114
0.023364278 -0.07080767 0.09503416 0.18733948 0.33553934 0.20861429 0.4551725 0.10373789
0.120391816 0.289824 0.4152501 0.07660919 0.14361045 -0.11971759 0.05542028 0.17492184
-0.06263937 0.054997243 -0.031235024 -0.18729192 0.0925179 -0.06779514 -0.024799433 -0.030395484

encoder.2.bias f4 [32]
00000000: 403c 9c3e 03c0 113e ccc5 033f ed0c 0d3e
00000010: 8fac 773e 86c6 c73e 89ca 9d3e 45fe 0f3d
00000020: a7f9 0bbe 9ffa f33e c8bb 013e 3e7b 553e
00000030: 1f2d 3c3d 52d9 553e 3770 d33d 660e 803d
00000040: 77fd 4e3e 1330 8a3e 6c0c 1a3e 2ff3 123e
00000050: 70b7 6a3e 57a7 df3d 5da3 ab3d 1998 43be
00000060: aa41 723e 3f63 ae3d aa54 c93d 89b5 be3e
00000070: 81bc f83d bb91 8c3a 38d8 dcbd 4c8a 143e
0.30514717 0.14233403 0.5147369 0.13774462 0.2418692 0.3901865 0.30818585 0.0351546
-0.13669454 0.47652146 0.12669289 0.20847794 0.04594147 0.20883682 0.10324138 0.06252746
0.20213877 0.26989803 0.15043801 0.1435058 0.22921538 0.109205894 0.083807684 -0.1910099
0.23657861 0.085150234 0.098306015 0.37247875 0.12145329 0.0010724583 -0.10783428 0.14505881

encoder.4.weight f4 [64, 32, 7, 7]
00000000: 2ae3 dbbd 6d65 f9bc 1f25 b03d f313 143e
00000010: 155d 33bd 4d68 953c c63a 123d 8de3 29be
00000020: 95a7 8ebd 9b23 9b3c c2d3 cdbd 5cdb e03c
00000030: baf7 a23d 11aa 43bb fa17 47bd 3e58 00bc
00000040: 274f 003e 611e 533d a2be 9f3d 2e09 f73c
00000050: 83f0 6b3d f193 df3c f3f4 5cbd 0957 bebb
00000060: f0a8 b23d 94b8 66bb 4974 b53c b0a1 323d
00000070: 9479 803d 096c 373d 61ac 373e b21c 053e
00000080: 441c 3f3e b60c 4b3e e167 f0bd dc61 89bd
00000090: 33d9 7f3c 2785 d13d 39bb 253d 71b4 d13c
000000a0: 2806 a03d f1e0 1fbd 3558 333c d1a9 5abd
000000b0: ea81 9cbd 7b92 afbd 6d56 5d3e 6258 a73c
000000c0: a303 afbd 2f6a 883c aa13 e63b 0f51 263e
000000d0: 147d 08bd edb4 013d 055d 78b9 4fbd 3fbe
000000e0: 4905 643d d735 a8bc 8881 ffbd 6b13 db3a
000000f0: a406 183d 22b3 093d 1749 b9bc 5548 f2bd
00000100: 2f32 a2bd 8ed5 8e3d 9270 8dbd 5694 a8bd
00000110: 72a3 373d cdb3 fb3d c28b 933c 47e9 93bc
00000120: 9ed7 4bbd c0c2 a2bd 6e34 4ebe de3c 413d
00000130: 1ad8 943c 92d0 b63a b5e3 cc3c 7a94 073d
00000140: 0d5e 8c3d b97f 023e 413f dd3d c991 01bd
00000150: c89c 2b3e 4a22 053d b12f 11be e1bc 0abe
00000160: 1b3f 9bbd a511 cb3d 76f2 cc3d c13f 8c3e
00000170: ae00 bdbc 6da3 383d f394 56bd 6a9c 813d
00000180: ab55 3a3d c772 fb3b 1301 16bc 1383 293c
00000190: 1d41 b4bc 3c64 8e3d 2dae ea3d 22ac 603d
000001a0: a732 663c cbed d63d c572 d73c e72f 8b3d
000001b0: 87ab 793e 8268 97bc 9561 823d 51a1 503b
000001c0: 642b 2c3e accc 1cbe 0d7a c9bc 792b 873d
000001d0: 9c9a c0bd c450 5ebb e25d 2a3e 2ced 1abe
000001e0: 8e36 293c b833 583b af71 5a3c b151 903d
000001f0: a206 0dbd ca67 56bd d1e6 3fbe 08d1 fe3d
00000200: 0abe 6cbd d5a2 9e3d 4f9b 653b 9563 03be
00000210: 777f 643e e33e 38be f3dc 8cbc 72fe 4bbe
00000220: 7bf1 38bd 34e0 9ebb 84b7 8a3d fe74 f73d
00000230: 8ff0 9dbd cb0f 063e 351f 723e ad63 213e
00000240: b467 65be 6f6f 273e 9d46 8abe 2369 fbbd
00000250: 7b16 4e3d 239c 3c3e 73f9 003d 7a3c 573d
00000260: 91da 90bc 3dae 28bd fbaa 183d 747c 913d
00000270: ba98 97bd 981d cc3c a1bd cb3c b7b6 d4bd
00000280: bc1d 3cbd e0ce 7b3d e242 ee3c 9457 d33d
00000290: bfbf 963d bad3 693e fef7 ce3d 1559 b93d
000002a0: 48b3 d5bc ca41 07be 95b6 7f3c b760 63bd
000002b0: bb57 543d e43e 29bd b647 00be 3885 113c
000002c0: ced9 9dba 7d08 953e a332 133e 6f07 333e
000002d0: a1e8 c3bd b15f 463d 7a0e 17be a650 00be
000002e0: 9506 bebd 92b4 903d 4f95 6e3e fa56 86bc
000002f0: 9888 013e 3a74 2b3d 8f65 8ebc dcb9 4d3e
00000300: ef44 9fbc cc43 9f3e 6f4b c1bb b5a9 22be
00000310: 6726 053e c68b abbc a01e 623d 3800 423b
00000320: 288b aa3d 5200 7abd 9ba6 6cbe 8d2c febc
00000330: 1043 95bd 1a28 f4bb cb94 8a3d e7fd 113c
00000340: a6a9 51bd b38a 87bd ea1e e0bd 1a7f 14ba
00000350: 7aff d33c 978a 263d 0508 3c3d c065 14bb
00000360: c0a6 f73d 177e 123d b26c c53c f6e4 d33c
00000370: 7c86 3f3d 240f 293d a3c3 753c 235a ca3c
00000380: 2395 cebd 6f97 4e3d 2774 963d 9e01 c23d
00000390: cbf7 033e 3d72 99bd 3f66 a43c 40f2 2bbd
000003a0: 7d14 443d ba97 703d 568d 573d 759d 533d
000003b0: 89d2 db3c f21f 243d fb44 01bd 5741 143c
000003c0: 3b04 c13d f531 4b3e 3e88 103e f21d b2bb
000003d0: a36c 44bd 01b5 edbc 5c8f 463d 7e57 39be
000003e0: b9c7 efbc 14a8 f7bd 1fb1 0b3b 962e b93e
000003f0: f1a8 553c a194 bc3d 6b8a 56bc 5881 683c
-0.107366875 -0.030443871 0.0860083 0.14460735 -0.04378994 0.018238211 0.035700582 -0.1659071
-0.069655575 0.018937876 -0.10050155 0.027448349 0.07957406 -0.0029856006 -0.04860685 -0.007833539
0.12530194 0.051542643 0.07800032 0.030155744 0.057602417 0.027292224 -0.05394454 -0.0058087152
0.087236285 -0.0035205232 0.022150176 0.04361123 0.06273189 0.044780765 0.17936851 0.12999228
0.18663126 0.19829068 -0.11738563 -0.06708118 0.015615749 0.10230475 0.040461753 0.025598736
0.07813674 -0.03903288 0.010946323 -0.053384606 -0.07641967 -0.08572861 0.21615 0.020427886
-0.085456155 0.016652195 0.007021387 0.16241859 -0.03332241 0.031666685 -0.00023685776 -0.18724559
0.055669103 -0.020533485 -0.12475878 0.0016714161 0.037115708 0.0336181 -0.02261786 -0.118302025
-0.07919728 0.06974326 -0.06906237 -0.08231418 0.044833608 0.12290154 0.018010978 -0.018055571
-0.049766175 -0.07947302 -0.20137188 0.047177188 0.018169452 0.0013947657 0.025010923 0.033100583
0.06853876 0.12744035 0.1080308 -0.031633172 0.16759026 0.032503404 -0.14178349 -0.13548614
-0.07580396 0.09915475 0.10007183 0.2739239 -0.023071613 0.04507773 -0.052388143 0.06328662
0.045491856 0.0076735946 -0.00915553 0.010346192 -0.022003705 0.06952712 0.11459003 0.05485166
0.014050162 0.10494574 0.026299844 0.06796246 0.24381839 -0.01848245 0.063662685 0.0031834433
0.16813427 -0.15312451 -0.024594331 0.066000886 -0.094044894 -0.0033922652 0.16637376 -0.15129536
0.010327948 0.003298981 0.013332768 0.070468314 -0.034430154 -0.052345075 -0.18740393 0.12442213
-0.057798423 0.077459015 0.0035035198 -0.12830956 0.22314249 -0.1799274 -0.0171952 -0.19921282
-0.04515217 -0.0048485044 0.06773284 0.12082861 -0.077118985 0.13091962 0.23644717 0.1576068
-0.22402841 0.16351102 -0.27007 -0.122759126 0.050314408 0.18418936 0.031487893 0.05254791
-0.017682346 -0.04118179 0.037272435 0.07103816 -0.07402177 0.024916455 0.024870696 -0.103864126
-0.045926794 0.06147659 0.029084627 0.103194386 0.073607914 0.22834674 0.101058945 0.09050194
-0.026086465 -0.1320869 0.015607496 -0.055512156 0.05184148 -0.041319743 -0.12527356 0.0088818595
-0.001204306 0.2910804 0.14374785 0.17483304 -0.09565855 0.048431102 -0.14751616 -0.12530765
-0.09278599 0.07065691 0.23299144 -0.016398896 0.12649763 0.04185889 -0.017382411 0.20090431
-0.01944205 0.31106412 -0.005898885 -0.1588505 0.1300293 -0.020940673 0.055204988 0.0029602181
0.08327323 -0.06103546 -0.2311043 -0.031027103 -0.07288182 -0.0074510695 0.06766661 0.008910633
-0.05118718 -0.06618252 -0.109433964 -0.00056646916 0.025878657 0.040659513 0.045906086 -0.0022643656
0.12092352 0.03576478 0.024099682 0.025866013 0.046759114 0.041274205 0.015000257 0.024701184
-0.10087039 0.050437387 0.07346373 0.09472965 0.12887494 -0.07492492 0.020068286 -0.041979074
0.0478711 0.058738448 0.052625023 0.051663835 0.02683379 0.040069528 -0.031559926 0.009048781
0.09424635 0.19843276 0.14114472 -0.0054356987 -0.047955167 -0.029016973 0.048476562 -0.18099782
-0.02927004 -0.12092605 0.002131529 0.36168355 0.013040767 0.09208036 -0.013094525 0.014190994

encoder.4.bias f4 [64]
00000000: e272 8bbc 2744 a8bb 180d 96bc 2ae8 703c
00000010: 413a 633c 87ac b53d 91d6 aa3c f2ae fabb
00000020: 2c59 043e 1b19 743d 0563 c3bb f8b7 ac3c
00000030: 5132 95bc 70d7 4cbd 31ef bd3b 73c8 6a3d
00000040: eba2 03bd c8be 4bbc d19f c0bd 9081 98bd
00000050: 6526 07bd 6a33 363d 9602 a3bd 0da3 03bc
00000060: 9952 a4bd e5c4 44bd 99f0 30bd 6ec3 4cbd
00000070: e684 73bc 135b 65bd d5f2 dd3c c4a2 eebc
00000080: 3904 43bd 8e41 8dbd dc9c c83d 8cc0 bbbc
00000090: 1f3f 65bb e85c e13c b55e 0e3d 2ae1 9f3d
000000a0: f36f 9d3d 950b 95bd 09ee 8dbd 7192 8ebd
000000b0: 12f5 a33c e245 a53a 0861 0dbd 1a9a 633d
000000c0: 6a11 c73c 034b 0b3e 6e76 473c 0ddd 783c
000000d0: 1482 1b3c 3690 96bd b3d3 dbbb 3fb7 58bb
000000e0: df01 6f3d cfb0 a1bd a0a0 b8bc 4174 59bd
000000f0: 5162 143c 483d 7dbd 62d4 0d3d cd75 573d
-0.017022554 -0.0051350775 -0.01831679 0.01470379 0.013868869 0.088707976 0.020854266 -0.0076502496
0.12924641 0.059594255 -0.005962732 0.021083817 -0.01821247 -0.050010145 0.005796336 0.05732007
-0.032137793 -0.0124356225 -0.094054826 -0.07446587 -0.0329956 0.044482626 -0.079594776 -0.00803448
-0.08023567 -0.048039336 -0.0431982 -0.049991064 -0.014863228 -0.05599506 0.02709333 -0.029130347
-0.04761145 -0.06897269 0.097955436 -0.022918962 -0.003498025 0.027510121 0.03475829 0.078066185
0.07687368 -0.072776 -0.06930167 -0.06961525 0.02001432 0.0012609328 -0.034516364 0.055566885
0.024300296 0.13602833 0.012174232 0.015189421 0.009491462 -0.07351725 -0.006708586 -0.0033068208
0.058351394 -0.07895052 -0.02253753 -0.053089384 0.009056644 -0.06182602 0.034626372 0.052602578

decoder.0.weight f4 [64, 32, 7, 7]
00000000: c1a1 49be 85d6 063d 2528 cc3c c7a0 a3bd
00000010: ac32 1cbe 7c03 113e 8b24 1ebe b574 a4bd
00000020: a703 ea3d 8666 bfbd 9f2a e73d a54e abbd
00000030: d183 15be 570b 0c3d 4594 973d 5194 d1bc
00000040: 4e94 6c3d f053 8cbc 9ac4 da3d 1972 b1be
00000050: 22c9 373e 1214 8ebd ac17 e3ba c1db 9dbd
00000060: 93cf 2c3d d6c3 3a3d 86c8 093e 15b9 b7bd
00000070: 72dd 22bd ee11 713d 5017 4d3d da1c 9c3d
00000080: 36d6 f1bd 6ed0 98ba 7ed6 6b3d 31a6 93bc
00000090: f9d5 883d adc6 8b3e 3840 233e f436 dd3d
000000a0: 8dfc 14bd 86dc 79bc d7f2 4b3d 376e d53c
000000b0: 0717 b33d 2c0d 55bd fc6e 413e a895 acbc
000000c0: d426 e7bd 5a89 893c ac38 0e3d bd62 e43d
000000d0: a3ba 8b3d d8de 51be f8da 3a3e d13e a53e
000000e0: 72b4 ed3d 166a b23d 31b3 6e3c f334 1abd
000000f0: 216c f13d 058d 453c e238 203d fcc4 373e
00000100: be21 1bbd 7656 8d3d 1a1a 18be 224e 6a3d
00000110: 88c9 093d 9987 16be 5bab 62bd 87cc 2a3c
00000120: 9053 1a3d 8180 6bbb 5fb5 1a3b afd7 483e
00000130: dd34 083e 150b 673d 978e 0fbe 1fa3 6f3d
00000140: fccd 5dbe 1b7c d8bd e531 6c3c 980a 04be
00000150: b2ea a23d a232 bebd 80f9 423d b853 203c
00000160: 0c74 40bd 26ce 55bd 47ca 96bd 728e a53d
00000170: 7218 bebe b580 653e 6f1a 98be 1d9e e6bd
00000180: 1529 99bd 20dc 87be 2e8d 193d 613a c93d
00000190: 92b6 11be bf00 52be 12b5 92bd d05f 62be
000001a0: 7879 a4bd ff58 b7bc c260 563d c073 253d
000001b0: 574f 513c a33f f93d db2d 45bd c25b 19bc
000001c0: d29c 39be 0f2d e03c bdaa 1dbd f219 b6bc
000001d0: b0c0 0dbd 0759 c8bd b498 37be 6b15 54bc
000001e0: b91c 6cbe eb3b 94bd 367a 033d 6578 973d
000001f0: 72c8 963d c388 a0bd e1f8 aebd 1930 723c
00000200: c52b 003b a1b7 80bc 893d e53c b69e 063d
00000210: 4671 2dbd 092c 1fbc 750e 093e 7185 c9ba
00000220: 190c d53d 462f 353d f456 c7bc 8f08 04bd
00000230: b027 4ebd e809 a83d 95cd efbd 46cf dc3d
00000240: 70b1 453e 34c9 a9bd 4c44 983e 5125 ca3d
00000250: 2026 913d 1765 423e c23f e03d f278 293e
00000260: 2b7a 263d 80d2 c03d 9fe1 bbbc 1b31 c1bb
00000270: 31d8 d93d 6f51 9639 69fd 07bc 9036 8fbd
00000280: 82bc 92bd b3bb 823c 1137 973d 51f4 0f3e
00000290: 79ab 053e c907 9e3e ef50 133e 1c34 083d
000002a0: 010c 43bd d7f3 cdbc e2f7 b73d 7a36 0a3d
000002b0: e081 8b3e bd8c f03d 474f 02bc e842 24be
000002c0: 5e5e 7cbd 756d 923d b139 e93d 35aa 8b3d
000002d0: 851e dcbc b5fd 6c3c e0fd 4fbe dafe 9ebd
000002e0: 81ee a33d b05c 733e b312 403e 2725 08bd
000002f0: 0b80 02be f2e3 6cbe 5b54 12be 19f0 ec3d
00000300: 8ca8 2f3e e7ce 973d 11d1 393d d784 6ebe
00000310: 73dc bcbd 7a7b 59bd 1752 163c 0f96 1d3e
00000320: 9038 653d ece7 a5bd 10fd ccbc 3572 be3b
00000330: 9fed 6a3a 5d67 863e bab8 973d fd17 b4bd
00000340: fd5d 7bbd fcef ff3c 765c da3d 6f86 913d
00000350: f964 62bd 3d91 573e 2f3b 033e 4146 e03d
00000360: 4b58 abbd 66af 1a3b a617 29be de0c bdbc
00000370: 8eab 093c 3d80 df3d 1a3f 9e3c c0db 8ebc
00000380: 93ba 68bd ce20 0fbd e659 f43d 580d 7bbd
00000390: 6a74 08bd c435 fdbd 19c7 843c 374e bebd
000003a0: fdd3 ffbc 8124 cf3d 8acd 823d 551f 613e
000003b0: 1eee 65bd 2fdc 6ebd 65d8 90bd 1a78 89bc
000003c0: fc0e f63d 2b3e 063e 4a0e 893e 3589 0abe
000003d0: a7a9 d23d 3f19 38be 1170 08be b3d4 3ebd
000003e0: cbb1 debd 23ad d13d a9af c6bd ef17 1dbe
000003f0: 607d 1c3d 8b64 d2bd ffcb 17be af17 7ebd
-0.1969061 0.032919426 0.024921486 -0.0798965 -0.15253705 0.14161485 -0.15443628 -0.080300726
0.11426478 -0.09345727 0.11287426 -0.0836461 -0.14601065 0.034190502 0.07401327 -0.025583418
0.057758622 -0.017129868 0.1068203 -0.34657362 0.1794782 -0.06937422 -0.001732578 -0.0770793
0.042190146 0.04559692 0.134554 -0.089708485 -0.039761968 0.05885499 0.05007106 0.076226905
-0.118084356 -0.0011658797 0.057577603 -0.018023582 0.06681437 0.27300015 0.15942466 0.10801497
-0.036373664 -0.015250331 0.049792137 0.026053531 0.087446265 -0.052014515 0.18889993 -0.021067455
-0.11286703 0.016789127 0.034722015 0.11151645 0.068227075 -0.20495164 0.18247592 0.32274488
0.11606683 0.087116405 0.01456909 -0.037648153 0.11788202 0.012057547 0.039116748 0.17946237
-0.037873976 0.06901257 -0.14853707 0.05720342 0.03363946 -0.14700164 -0.0553392 0.01042474
0.037677348 -0.0035934749 0.002360664 0.19613527 0.13301416 0.056407053 -0.14019237 0.058505174
-0.21660608 -0.10570546 0.014416193 -0.12894666 0.07954921 -0.09287001 0.047601223 0.009785585
-0.04698567 -0.05219855 -0.073628 0.0808381 -0.37128025 0.22412379 -0.29707667 -0.112606265
-0.07478539 -0.2653513 0.037488155 0.09825588 -0.14229801 -0.20508097 -0.07163443 -0.22106862
-0.08030981 -0.022381304 0.05233837 0.04039359 0.012775264 0.12170341 -0.048139434 -0.009360256
-0.18126228 0.027365236 -0.038492907 -0.022229169 -0.03460759 -0.097826056 -0.17929345 -0.01294456
-0.23057832 -0.07237991 0.03209897 0.0739601 0.07362451 -0.07838585 -0.08543564 0.014781975
0.0019557339 -0.015712561 0.027983444 0.032866202 -0.042344354 -0.009715089 0.13384421 -0.0015374852
0.10402698 0.044234537 -0.024333455 -0.032234725 -0.050330818 0.082050145 -0.117091335 0.10781722
0.19305968 -0.082903296 0.29739606 0.09870399 0.0708735 0.18983875 0.10949661 0.16550043
0.040643852 0.0941515 -0.022934733 -0.0058957464 0.10636938 0.00028670902 -0.008300164 -0.06992829
-0.07164861 0.015958643 0.0738355 0.14058043 0.13053693 0.30865315 0.14386342 0.03325282
-0.04761887 -0.025140686 0.08982827 0.03374336 0.27247524 0.11745594 -0.0079534715 -0.16041148
-0.061613433 0.071497835 0.11387957 0.06819574 -0.026870022 0.014464785 -0.2031169 -0.07763453
0.080044754 0.23765826 0.18757133 -0.033238556 -0.12744157 -0.23133829 -0.14289992 0.115692325
0.1715414 0.0741251 0.045365397 -0.23292862 -0.09221735 -0.053096272 0.009174845 0.15389274
0.055962145 -0.08100876 -0.025023013 0.0058119544 0.00089618 0.26250735 0.07408281 -0.08793638
-0.06136893 0.031242363 0.10662167 0.07105719 -0.055272076 0.21051498 0.12815545 0.109509
-0.0836645 0.002360308 -0.16512927 -0.023077425 0.008402718 0.109131314 0.019317199 -0.01743877
-0.056818556 -0.034943394 0.11931209 -0.061292022 -0.033314146 -0.123637706 0.016208218 -0.09292262
-0.031229014 0.101143844 0.0638686 0.21984608 -0.05613529 -0.058315452 -0.07072524 -0.016780902
0.12014577 0.13109653 0.26768714 -0.13528903 0.10286265 -0.1797838 -0.13324 -0.046589565
-0.10873755 0.10238101 -0.09701473 -0.15341161 0.038205504 -0.10273083 -0.14823912 -0.062034305

decoder.0.bias f4 [32]
00000000: c5eb edbd c41f 913d c92a 4b3e 74d4 343d
00000010: 7393 2fbd cebc 8a3e 3002 6a3e 309f 7abd
00000020: 95fa 723e 1495 783e f7cd 183d 08a3 8c3e
00000030: 5bb9 0d3d 70eb 38bd 7157 95bd 6af4 ccbe
00000040: cde4 253e 700c 4f3c 45d9 b63e de11 d33e
00000050: 5ac0 28bd 09b5 903d 434d 1e3e 40f0 02bd
00000060: 86ea 733b 82e2 3f3d c85b a93e ff01 d23d
00000070: 5aae acbc cb67 1ebc 94af b63e 75c4 2dbd
-0.11617235 0.07086137 0.1984054 0.044147924 -0.042865228 0.27097172 0.22852397 -0.06118697
0.23728402 0.24275619 0.0373058 0.27468133 0.034600597 -0.045146406 -0.07292069 -0.40030223
0.16200562 0.012637243 0.35712638 0.4122457 -0.041199066 0.0706578 0.1545916 -0.0319674
0.0037218644 0.046846874 0.33077836 0.10254287 -0.021079231 -0.009668301 0.3568083 -0.042423684

decoder.2.weight f4 [32, 16, 3, 3]
00000000: 3785 b9bc bcf0 54bc bfb2 a8bc e64b c73d
00000010: a8b4 133e 268d 273e 0b9b d0bd 6b28 99be
00000020: ed26 9dbc 50ff 0f3d 4d0b ae3d cb0a 363d
00000030: e372 d2bd b4f1 cabd 97c4 b2bd 1508 133e
00000040: a72d 173f d766 1c3d c778 07bd 8264 1c3b
00000050: d359 c63d 36ff 49be fbee f63b 04a3 223e
00000060: 87d6 16bc 738a 723a 0641 663e 2486 173d
00000070: 1a01 df3c 3817 463c fa70 0abe 9f35 0ebe
00000080: d665 15be 96e7 733e 3875 b63e 4e78 4ebd
00000090: 59a0 c0bc 1c97 56bc b127 64bd b9bb c43d
000000a0: e082 053e 87c6 df3d a0d2 ddbd 0770 c7be
000000b0: 8896 81bd 881b c6bc d34f 0480 6ccb c0bd
000000c0: 9dca 003d b3e5 0780 67d3 61be 403a 05be
000000d0: ed5a 0780 e3fb cfbd 0433 c68b 1287 da3d
000000e0: 9bff b293 769e fe3d 75db a03d 1774 3e3e
000000f0: 76b3 2587 60b5 1bbf 9b19 8d92 cb1b 29bd
00000100: e35e 33bd 4562 7b3b c786 23bd 871c 0fbd
00000110: d03c bbbd 1ada 903e ba53 df3e 13f7 da3d
00000120: 576c 4abb 2639 44bd 7e08 39bd a0c9 b2bd
00000130: 024d cfbd 83d7 30be 35d5 9f3e 2f33 343f
00000140: bccb a53d 8e2e 46bd 018f fbbd 45ac 70bd
00000150: 530c 19bd 5bae b83d 659d 1ebc 2089 aa3d
00000160: 6ddd ec3e ffdf c63e 7c43 123d 1684 993c
00000170: 1ff7 683d 4a12 7ebd be33 32be 8e17 08be
00000180: 03f6 583d ea3a e93e 504d a33e c569 fabc
00000190: 450b 5dbc 139d 3fbd 6496 cc3d d621 0c3e
000001a0: df55 013e faba d0bd f0c6 aebe 76b7 35bd
000001b0: 2cde d4bd bcaf 2ebe ea6e 9cbd 9d7f 473d
000001c0: c0d5 c53d b5e8 efbd 3d65 543e 86b5 ff3e
000001d0: 379a 0f3d 1865 1180 00b3 853c e18f 0580
000001e0: 44c9 84bd f6c8 06be 9709 bdbd 4858 0780
000001f0: f741 b23e 821c 0e00 9c9e 643d a0c6 f63c
00000200: 4c97 623d 5eea 7dbd fed5 1ebe 0abb acbd
00000210: 76a1 eb3d cd75 f03e a632 e83d b104 2ebd
00000220: f317 d0bd c986 f1bd 5a1a d1bc c478 043d
00000230: 3431 c4bd 60fa 973d c0a1 ac3e b1b1 8f3e
00000240: f703 3a3d 45ad 923d cf9f 333e 9e6e c83d
00000250: 6abe 0f3e 360a 523e ecad 1f3e d1aa b43d
00000260: 085d a2be f1e5 2fbb 538e ff3d af90 36bc
00000270: 0b7f b33d 0950 ab3e 2fb2 193e 27f7 7bbd
00000280: 78de fc3e 0e6d f73e d56f 55bd 3ccb 52ba
00000290: c9d2 9a3e f044 1bbf d8fe 563c 2ee5 cf3e
000002a0: 866b acbe 1c16 bb3d 093f 4c3f 3323 75bd
000002b0: e48a 90bd c066 23be 4e1c 25be 71d3 3dbe
000002c0: d02e 66be 7986 85be 11d2 b53d f332 a83e
000002d0: c653 a03c ed34 2fbd 3264 e83d 1c9e edbc
000002e0: be0e ffbd 35b0 d2bc 8c14 c73d 4e45 83bd
000002f0: 0b08 f3be 6114 2fbd 4f68 0c00 c97b ccbd
00000300: 3647 17be ceb2 0b00 3eba 963e 900a 00be
00000310: 4a78 1100 3147 ee3d d5c0 0dac aa3c 463d
00000320: d559 53ad 435b 09be dc71 99be af69 b0be
00000330: c2bf 43a9 5e47 123e be65 86ab 94de aa3c
00000340: 0138 a13c 22d4 31be aebf a83c 8408 563e
00000350: 75e3 123e 92d8 62be 8ddf a43d e4b8 bb3e
00000360: bd66 9fbd 47d6 13be 9975 58be bc73 b4bd
00000370: 7db6 ba3d 7e52 df3d 50aa 9bbe c2db b63d
00000380: 2b0b be3e 2140 413d a6b0 d13d 76d6 02be
00000390: b693 b23d 7517 963e 88ba 3d3f 1f75 bebd
000003a0: 258f f3bd feb3 d13e f2ae 9ebd 219d eabc
000003b0: f6ab 3bbe 54fb 91bd 59ea dfbd 7d80 3dbe
000003c0: 6539 05be 8db5 7abe 1d6a 043f 6db0 113d
000003d0: 823f 9cbc 2fec b63d d815 c3bc 8a64 ddbd
000003e0: 718b 78bd 0e4b 8d3d 6307 e5bd d76a 04bf
000003f0: bc69 8ebd 6c7f 28be bbe7 7abe 2b73 12be
-0.02264653 -0.012996849 -0.020593045 0.09731273 0.14424384 0.16362438 -0.10185822 -0.2991365
-0.0191836 0.035155594 0.08498249 0.044443887 -0.10275819 -0.099093825 -0.08728903 0.14358552
0.59054035 0.038184013 -0.033074167 0.0023863618 0.09685101 -0.19726261 0.007535813 0.15882498
-0.009206421 0.0009252198 0.22485742 0.03699316 0.027222205 0.012090497 -0.1351966 -0.13887642
-0.14589629 0.23818812 0.35636306 -0.0504077 -0.02351396 -0.013097551 -0.055701915 0.09606118
0.13038206 0.10926538 -0.10831189 -0.38952658 -0.0632754 -0.02418305 -3.95978e-40 -0.094138
0.031443227 -7.25249e-40 -0.220533 -0.13010502 -6.75466e-40 -0.101554655 -7.6343586e-32 0.10670294
-4.5185564e-27 0.12432568 0.07854358 0.18598972 -1.2465959e-34 -0.6082363 -8.904663e-28 -0.04128627
-0.043791663 0.0038358134 -0.039923456 -0.034939315 -0.091424584 0.28291398 0.43618566 0.10691657
-0.003088733 -0.047906063 -0.045174114 -0.08729863 -0.1012211 -0.17269711 0.31217352 0.703906
0.080955 -0.04838424 -0.12283135 -0.05875804 -0.03736527 0.09017631 -0.0096810805 0.08326936
0.46262684 0.3884277 0.03570889 0.018739741 0.056876298 -0.06202916 -0.1740255 -0.13290235
0.05296899 0.4555276 0.31894922 -0.030568013 -0.013491456 -0.046780657 0.09989622 0.13684782
0.12630413 -0.10191913 -0.34136152 -0.044364415 -0.103939384 -0.17059225 -0.07638343 0.048705686
0.0965991 -0.11714307 0.20741744 0.4994318 0.03505918 -1.597469e-39 0.016320705 -5.10792e-40
-0.06483701 -0.13162598 -0.09230345 -6.74518e-40 0.34815952 1.295924e-39 0.055815324 0.030124009
0.05532007 -0.061991088 -0.15511319 -0.08434112 0.115054056 0.46964875 0.113377854 -0.042484943
-0.10160818 -0.11793286 -0.02552526 0.032341734 -0.09579697 0.07420802 0.33717155 0.28065255
0.045413937 0.07161955 0.17541431 0.097867236 0.14037481 0.20511708 0.1559369 0.08821643
-0.31711602 -0.0026839937 0.12478318 -0.011142894 0.08764466 0.334595 0.15009378 -0.061515
0.4938848 0.4832539 -0.052108604 -0.00080411485 0.3023894 -0.60652065 0.013122283 0.40604538
-0.33675784 0.091350764 0.79783684 -0.05984802 -0.07057741 -0.15957165 -0.16124079 -0.1853769
-0.22478795 -0.26079157 0.088779576 0.3285137 0.019571196 -0.042775083 0.11347236 -0.029006056
-0.12453984 -0.025718788 0.09720716 -0.06409703 -0.47467074 -0.042744044 1.139445e-39 -0.09984548
-0.14773259 1.074333e-39 0.29438967 -0.1250403 1.604355e-39 0.116346724 -2.0144348e-12 0.048397698
-1.2013908e-11 -0.1341372 -0.2996968 -0.3445563 -4.346502e-14 0.14285037 -9.549512e-13 0.020858087
0.019680025 -0.17366078 0.020599212 0.20901686 0.1434458 -0.22152928 0.080504514 0.36664498
-0.07783268 -0.14437209 -0.2113861 -0.08811137 0.09116838 0.10904406 -0.30403376 0.08928634
0.37117895 0.0471803 0.10238771 -0.12777123 0.0871958 0.2931477 0.7411275 -0.09299683
-0.11892537 0.40957636 -0.07748212 -0.028639378 -0.18327317 -0.07128015 -0.1093337 -0.18506046
-0.13010176 -0.24483319 0.51724416 0.035568643 -0.019073252 0.08931767 -0.023814127 -0.10810192
-0.060679857 0.06899081 -0.111830495 -0.51725525 -0.06953761 -0.16454858 -0.2450246 -0.14301746

decoder.2.bias f4 [16]
00000000: d669 15bf 776c a9be 7a46 893e 2188 6dbd
00000010: 287f cfbe 415a 25bd abee 01bd 63ae 11be
00000020: 97ad b3be 5729 88bd 72f1 eebd 0cb6 36bf
00000030: 5ecc 39be 49ae 16bd 5ff8 11be 069b 25bc
-0.5836462 -0.33090565 0.26811582 -0.05799115 -0.405267 -0.040369276 -0.031721752 -0.1422668
-0.35093376 -0.0664851 -0.11667146 -0.7137153 -0.18144366 -0.036787305 -0.14254902 -0.010107761

decoder.4.weight f4 [16, 3, 3, 3]
00000000: 71d7 173e df3d a63e eb7b 413e 26bf b33e
00000010: db1a 903f 2ea8 d93e 53a9 153e 2daf ab3e
00000020: 1530 3b3e 27e5 0a3c 3dd4 163c f083 733b
00000030: f8a4 9c3c c2aa db3c 0378 193c 1afa 103c
00000040: 9c88 563c 2180 55bb 14a3 1e3b 63a8 ecba
00000050: b486 a3b7 fb19 813a b3b1 853b 1ed1 3f39
00000060: 7abd dfba 63fc f2b8 2499 b9bb 0263 b23a
00000070: d157 59bc 6a53 b9bc 0278 223c 4585 38bc
00000080: 00bc 9fbc 609f 1d3c c1f7 7a3c aef9 f93b
00000090: 2dfd e03b d0a7 dbbd 925d 1dbe c4eb c6bd
000000a0: 4357 06c0 3f10 68bf cd6a 9d3c 716e cabc
000000b0: 9484 70bd 9dda fb3c f5d0 edbd 51a8 01be
000000c0: 5797 fabc a44c 13c0 98fb 35bf addb f83c
000000d0: 3e45 d2bb a8fb 78bc 1736 f6b9 7210 063a
000000e0: fd3e a8be 5b2e 053b b330 623b 00bc 9dbf
000000f0: d632 983a 0a0e c23b 18e1 bbbe c787 72ba
00000100: c4a9 013a c519 aabe d89b 9f3a ad34 3c3b
00000110: 7832 b8bf 69a1 54b8 c898 903b 10f5 c5be
00000120: c8df 99ba 62b1 ed3a b9f0 b3be 8138 013b
00000130: 37f5 253a f69c cfbf 9f4e c53a 23f5 1c3b
00000140: 679f d3be 6366 483b 3983 c9bd f266 27be
00000150: 7b8d 3abd dd03 fdbf 4498 d9bf 6827 a13b
00000160: c419 22bd 49d8 d1bd ef08 3dbb 4a75 82bc
00000170: 0871 a0bc e58d d73b 72ec dabc f466 0ebd
00000180: 6c4b 663b af39 e73b 23b3 acbb 9809 57bc
00000190: 8611 35bc 195d 26bc bacb 423c 5801 963b
000001a0: ad0b 87bc b491 0b3c 455b 1e3c d6da 3bbc
000001b0: d84c 3b3b 37fa 76bb 08e1 b7bb 7702 36ba
000001c0: f0d5 2bbb 099c a8bb 7b8b b7bb 2dec 68bb
000001d0: 3689 89bb 6119 073c 9465 803c 786e 303c
000001e0: cc21 1c3c 774e 013d 7676 973c 1094 63bb
000001f0: 1cd8 193c 904c b23b b596 1c3e a037 ab3e
00000200: c986 4e3e d641 cc3e 9606 9f3f 8dbc ec3e
00000210: a3d2 1c3e cc04 b33e ab14 483e 0f96 50bc
00000220: 2f02 19bc 50ff dcbb a09f d83c 4c87 9b3c
00000230: 9856 923a 8916 913c 58d6 dcbf f81b e2bd
00000240: 158f 35bc ce8a fdbb 906f 89bb 8ea7 423d
00000250: adfb bb3c b614 653b 5a90 223d 2fe3 c7bf
00000260: 66e9 68bd ce84 99bc 7f18 8dbc 8c47 8dbc
00000270: 46dd af3c 9cf1 0b3c da53 d3bc 62c6 993c
00000280: 0a1a d7bf 31d8 86be 49b6 8abd dc68 b4bd
00000290: 7a90 83bd 61db 783c 631f a33c 34fb e43c
000002a0: b40e 333e b47a a43e b86e 3a3e 4612 a8bd
000002b0: 2f11 d8bd a3bb a8bd 9da3 953c d40b 983c
000002c0: d329 e63c 72c9 583e e8f8 e63e 70fc 6c3e
000002d0: a318 a2bd ec48 dbbd 7db0 9ebd 5f0b 453c
000002e0: b4a7 bf3c b305 fa3c 6746 4c3e 1ddb af3e
000002f0: 3da3 533e 5f96 a83b 8b64 d03b bbce a23b
00000300: 1043 723b 1c11 58bb 6a05 d3bb 1e18 dd3b
00000310: 5c8b 5abb afb6 17bc e788 a5b9 232d b13b
00000320: 4636 b83b 05ed b03b ee03 ad39 6d9f 8ebb
00000330: e001 093c 1dec d9bb 1b7b 92bc be12 acbc
00000340: 8def 42bd 292d 14bd 2ad3 86bd eb5d 58bf
00000350: bc0e 8dbf e54b 85bd fc3f 09c0 af34 f5bf
00000360: 42bc c03b 7ee6 e13c 4860 3e3d e379 efbc
00000370: e145 71bf 72af c1bf 0ef1 78bc bd77 3bbf
00000380: f007 43bf 1df6 113c d79d d23c 6dd5 f33c
00000390: 9b01 bfbc e4e5 82bf d372 e2bf 7da8 61bd
000003a0: 3384 63bf 957e 71bf 9d3b 353c ca27 d53c
000003b0: 74bf 0e3d b767 8bbc 4655 4dbb 8be4 ca3c
000003c0: ef67 c6bc 3a94 cf3c d215 d23d 1878 393c
000003d0: bf2b 853c deef 313c bacf c5ba 5eec 163c
000003e0: 4b14 3a3c 1097 72bc a128 6bbc 76c9 8c3b
000003f0: 9136 293c 8585 863b d900 fb3b 0500 6bbd
0.14828278 0.3246908 0.18894927 0.35106772 1.1258196 0.42511123 0.14615373 0.33532086
0.1828006 0.008477486 0.009205875 0.0037157498 0.019121632 0.026814822 0.009366992 0.008848691
0.013094094 -0.0032577591 0.002420609 -0.0018055554 -1.949384e-05 0.0009849662 0.0040800213 0.00018293082
-0.0017070018 -0.0001158647 -0.0056640077 0.0013609829 -0.013265566 -0.022622783 0.009916307 -0.011262243
-0.019498825 0.0096205175 0.015317858 0.007628641 0.0068661184 -0.10725367 -0.15367725 -0.097129375
-2.099076 -0.9064979 0.019215966 -0.024710866 -0.058720186 0.030743891 -0.11612121 -0.12661864
-0.030589743 -2.3015528 -0.71087027 0.030378187 -0.0064169457 -0.015196718 -0.00046961076 0.0005114145
-0.32860556 0.002032182 0.003451389 -1.2322998 0.001161183 0.0059220837 -0.3669517 -0.00092518
0.00049462565 -0.33222786 0.0012177182 0.002871792 -1.4390402 -5.0695064e-05 0.004412744 -0.3866353
-0.0011739666 0.0018134529 -0.35144594 0.0019717517 0.00063307903 -1.6219776 0.0015053338 0.0023949824
-0.41332552 0.0030578605 -0.09839482 -0.16347864 -0.045545083 -1.9766804 -1.6999593 0.0049180277
-0.039575353 -0.10246331 -0.0028844436 -0.015925068 -0.019585148 0.0065781944 -0.026724074 -0.034766153
0.003514017 0.007056437 -0.005270378 -0.013124846 -0.011051541 -0.010154032 0.0118893925 0.004577797
-0.01648506 0.008518625 0.009665315 -0.011465749 0.0028579738 -0.003768576 -0.0056115426 -0.00069431163
-0.0026220046 -0.005145554 -0.005601344 -0.0035541162 -0.004197265 0.008245797 0.015673436 0.010768525
0.009529542 0.03156897 0.018489104 -0.0034725703 0.009389903 0.005441256 0.15291865 0.33440876
0.20168604 0.3989398 1.2423885 0.46237603 0.15314727 0.34964597 0.19539134 -0.012731089
-0.0093388995 -0.006744303 0.026443303 0.018985413 0.0011164723 0.01771094 -1.7252913 -0.11040491
-0.011081477 -0.007737494 -0.0041942075 0.047523074 0.022947157 0.0034954972 0.039688446 -1.5616206
-0.05686321 -0.018740084 -0.017223595 -0.01724603 0.021467816 0.008541491 -0.02579682 0.018771354
-1.6804821 -0.26336816 -0.067730494 -0.08809063 -0.06424041 0.015189023 0.019912427 0.027951814
0.17486078 0.32124865 0.18206298 -0.082066104 -0.105501525 -0.08238914 0.018266493 0.018560328
0.028096115 0.21170595 0.45111775 0.23143172 -0.07914855 -0.10707268 -0.07748506 0.012026637
0.023395397 0.030520296 0.19948731 0.34346858 0.20667739 0.0051448788 0.006359642 0.004968492
0.0036966242 -0.0032969182 -0.0064398544 0.0067472598 -0.0033347225 -0.009259864 -0.00031573253 0.005406992
0.0056217043 0.0053993487 0.0003300006 -0.004352501 0.008362263 -0.0066504613 -0.017880967 -0.02100503
-0.047591735 -0.03617588 -0.06583245 -0.8451831 -1.1020122 -0.06508616 -2.1445303 -1.9156703
0.005881817 0.027575728 0.04647854 -0.029232925 -0.9424725 -1.5131667 -0.015194191 -0.7322958
-0.76183987 0.008908776 0.02571003 0.029764855 -0.023316195 -1.0226407 -1.7691292 -0.055092324
-0.88873595 -0.94333774 0.011061576 0.02601995 0.034850553 -0.017017229 -0.0031331345 0.02476718
-0.024219481 0.025339235 0.10258068 0.0113201365 0.016256211 0.010860411 -0.0015091815 0.009211628
0.011357377 -0.014806524 -0.014352948 0.004296477 0.010327951 0.0041052722 0.007660013 -0.057373066

decoder.4.bias f4 [3]
00000000: faa7 02be d184 5cbe eaa8 8fbe
-0.1275939 -0.2153504 -0.2805856
