weights/model_MSELoss().pkl (torch_old, 845934 bytes, 12 tensors)

encoder.0.weight f4 [16, 3, 3, 3]
-0.11588135 -0.096792445 0.02019493 -0.1690589 0.2656587 -0.12697203 -0.10827046 -0.09784406
0.058678407 -0.14116418 -0.010279169 -0.067440175 -0.0238213 0.5570221 -0.05500908 -0.12648155
-0.011446916 -0.093084544 -0.036636032 0.304236 0.020952847 0.49799603 1.2917024 0.39490893
0.08068484 0.34351027 -0.0133531755 0.040895257 -0.037448704 0.014178934 0.02020383 0.29055423
0.0685154 0.39913812 1.2889678 0.3081079 0.006652453 -0.015861306 0.008086936 -0.055984125
0.098720044 -0.050326698 0.028200064 0.6790542 -0.1847163 0.045687396 -0.043516267 0.11452147
-0.09806672 -0.1826155 -0.008333574 -0.22591123 0.02832722 -0.3397766 0.07535249 -0.0712128
-0.10824151 -0.047895484 -0.011064074 0.6947332 0.004402032 -0.20188296 -0.17003976 -0.082726985
0.031703852 0.29305363 0.0051633893 0.39595696 1.3820368 -0.12050225 0.034786124 0.40347433
0.074584775 -0.094898246 -0.18990152 -0.043406352 -0.09066 0.4548751 0.13400081 -0.0520771
-0.02268282 0.13688397 0.03302597 0.1429434 -0.09186345 -0.15901002 -0.029417902 -0.06747655
0.33433616 -0.15332346 0.053492524 -0.026790285 0.035669476 -0.17354442 -0.16823673 -0.07168152
-0.019499173 0.50089526 -0.13180257 -0.16165756 -0.06661462 -0.12033397 0.1370405 0.2857748
0.18783781 0.57683676 1.3292383 0.46299824 -0.29066786 -0.38044614 -0.37551367 -0.36080164
-0.04135112 -0.5092738 -0.31011668 -0.3530663 -0.6235113 0.03495652 -0.0981561 -0.014876113
-0.09877207 0.12997437 -0.23008634 0.024332594 -0.09447645 -0.20955084 -0.028083274 -0.19778222
-0.01840544 -0.1201976 0.066315 -0.21646689 -0.016382912 -0.1502588 -0.1919148 -0.0044961944
-0.055467445 -0.24395001 0.015267514 -0.06039204 -0.7799503 0.16179937 0.6187523 -0.15370719
0.016637376 -0.02481422 -0.20035109 0.1271838 0.10497238 -0.61269444 0.25271297 0.7433965
-0.05499008 -0.046959452 -0.057262413 -0.19146961 0.066682644 0.080109596 -0.5753273 0.19515295
0.6596893 -0.05684805 0.30662227 -0.14028136 -0.17557503 0.60940254 -0.0710463 -0.2453158
0.15297244 -0.48492074 -0.23765145 0.34015283 -0.009878402 -0.03400657 0.6454983 0.08661714
-0.054917928 0.06894997 -0.4390825 -0.13369021 0.001803701 -0.10495035 0.11224755 0.26958847
0.028334264 0.1606102 0.013150717 -0.22240236 0.29962596 -0.14858241 -0.12366645 -0.0032083811
-0.12218015 0.045153257 0.5692741 -0.13331631 0.43195754 1.4867758 0.15782467 0.058030516
-0.0011176815 -0.01748202 -0.23322034 -0.16873676 -0.05265755 -0.21853593 0.36116275 0.039415166
0.08157126 0.014792141 0.09987129 -0.057643358 -0.029231941 0.09718672 -0.08143945 0.15947816
0.23955733 0.34549564 0.23341087 0.09865359 -0.15275456 -0.31727424 -0.09884883 -0.2657346
-0.34707075 0.12401441 0.21061748 0.049367137 0.032455627 -0.2274241 -0.42234093 -0.06822865
-0.21861619 -0.31990668 0.13834803 0.19659682 0.0020054143 0.004672841 -0.30112183 -0.5410665
-0.09416976 -0.2758492 -0.4164533 0.014424736 0.09929473 0.0116194775 0.066777386 -0.1885164
0.052682303 -0.0110676475 0.08925667 -0.028010298 0.06696363 0.012057197 -0.012717159 0.007805147
00000000: 3453 edbd 1e3b c6bd d66f a53c c71d 2dbe
00000010: 6b04 883e f504 02be e7bc ddbd 7762 c8bd
00000020: c558 703d 588d 10be f669 28bc 131e 8abd
00000030: e324 c3bc 0099 0e3f 3351 61bd 6184 01be
00000040: d88b 3bbc 1ca3 bebd aa0f 16bd d2c4 9b3e
00000050: 4ea5 ab3c 56f9 fe3e 8156 a53f 8131 ca3e
00000060: 183e a53d 94e0 af3e 47c7 5abc c981 273d
00000070: d063 19bd c24e 683c 8182 a53c 86c3 943e
00000080: cd51 8c3d d55b cc3e e6fc a43f 52c0 9d3e
00000090: d2fc d93b 92ef 81bc 117f 043c 9c4f 65bd
000000a0: bc2d ca3d 5e23 4ebd d203 e73c 7fd6 2d3f
000000b0: 4526 3dbe b522 3b3d 1d3e 32bd 3c8a ea3d
000000c0: 34d7 c8bd 8fff 3abe 8b89 08bc 4655 67be
000000d0: 7c0e e83c 33f7 adbe 6852 9a3d 04d8 91bd
000000e0: baad ddbd 0e2e 44bd 1746 35bc 09da 313f
000000f0: ec3e 903b 68ba 4ebe e71e 2ebe c46c a9bd
00000100: e6db 013d 200b 963e a631 a93b dfba ca3e
00000110: 95e6 b03f e2c9 f6bd e57b 0e3d 3094 ce3e
00000120: e7bf 983d 035a c2bd 8b75 42be dcca 31bd
00000130: f3ab b9bd 64e5 e83e 8237 093e cc4e 55bd
00000140: 52d1 b9bc 502b 0c3e 3d46 073d c15f 123e
00000150: e822 bcbd 86d3 22be d0fd f0bc 2531 8abd
00000160: 1c2e ab3e d300 1dbe fa1a 5b3d 4d77 dbbc
00000170: 281a 123d a1b5 31be 4046 2cbe c3cd 92bd
00000180: bbbc 9fbc ac3a 003f 41f7 06be 8f89 25be
00000190: 3f6d 88bd a871 f6bd 5854 0c3e 1351 923e
000001a0: 8e58 403e 93ab 133f 7b24 aa3f 1b0e ed3e
000001b0: 6bd2 94be d6c9 c2be 5443 c0be feba b8be
000001c0: cb5f 29bd c55f 02bf 9dc7 9ebe 1bc5 b4be
000001d0: 709e 1fbf 912e 0f3d 1106 c9bd f1ba 73bc
000001e0: 0349 cabd 0018 053e c19b 6bbe 2655 c73c
000001f0: de7c c1bd 7f94 56be e50e e6bc 6c87 4abe
00000200: 01c7 96bc 292a f6bd 29d0 873d 7fa9 5dbe
00000210: 7535 86bc 71dd 19be 5085 44be d054 93bb
00000220: d531 63bd 08ce 79be 9824 7a3c a55d 77bd
00000230: d3aa 47bf bcae 253e 8d66 1e3f 6b65 1dbe
00000240: 1b4b 883c 3147 cbbc d628 4dbe 783c 023e
00000250: c2fb d63d 8bd9 1cbf 9863 813e 3c4f 3e3f
00000260: 473d 61bd 8e58 40bd fe8b 6abd 9c10 44be
00000270: e990 883d 8010 a43d a648 13bf 2dd6 473e
00000280: 66e1 283f 80d9 68bd 98fd 9c3e eba5 0fbe
00000290: f1c9 33be ce01 1c3f b980 91bd 1134 7bbe
000002a0: cfa4 1c3e 8847 f8be e75a 73be 8328 ae3e
000002b0: 05d9 21bc 794a 0bbd 603f 253f 5464 b13d
000002c0: 9ff1 60bd a435 8d3d 6ccf e0be 16e6 08be
000002d0: 2a6a ec3a 36f0 d6bd 0be2 e53d 8007 8a3e
000002e0: 421d e83c 0077 243e 1b76 573c 72bd 63be
000002f0: 9368 993e fd25 18be d644 fdbd b443 52bb
00000300: 9639 fabd 9ff2 383d f3bb 113f 1284 08be
00000310: 8a29 dd3e ab4e be3f ca9c 213e 68b1 6d3d
00000320: 2b7f 92ba 7436 8fbc 50d1 6ebe 54c9 2cbe
00000330: 71af 57bd e2c7 5fbe 53ea b83e cc71 213d
00000340: d50e a73d bc5a 723c 5289 cc3d 711b 6cbd
00000350: d377 efbc d509 c73d bac9 a6bd 3e4e 233e
00000360: 844e 753e cee4 b03e 4203 6f3e e50a ca3d
00000370: b16b 1cbe c571 a2be 4171 cabd 5e0e 88be
00000380: 42b3 b1be 44fb fd3d 1cac 573e 3235 4a3d
00000390: 31f0 043d dde1 68be 123d d8be 76bb 8bbd
000003a0: ecdc 5fbe cfca a3be 1bab 0d3e ad50 493e
000003b0: 456d 033b a21e 993b a42c 9abe 5683 0abf
000003c0: 13dc c0bd 1b3c 8dbe 5e39 d5be ba55 6c3c
000003d0: 095b cb3d 9f5f 3e3c 95c2 883d 710a 41be
000003e0: 66c9 573d 1455 35bc 33cc b63d da75 e5bc
000003f0: 3a24 893d 8d8b 453c a25b 50bc 52c2 ff3b

encoder.0.bias f4 [16]
0.014048526 0.235132 0.3854802 0.26208508 -0.20198879 -0.03888337 0.43418118 0.35434318
0.16724938 1.4004537 -0.10501167 0.37641978 0.45131734 0.27493414 1.3220695 -0.27259016
00000000: ca2b 663c 71c6 703e a95d c53e 0430 863e
00000010: 26d6 4ebe 2b44 1fbd ff4c de3e 786c b53e
00000020: 6c43 2b3e 1142 b33f 5c10 d7bd 18ba c03e
00000030: 1113 e73e 2bc4 8c3e 9339 a93f f090 8bbe

encoder.2.weight f4 [32, 16, 3, 3]
-0.009398073 -0.03637229 -0.021213664 0.012777579 0.072373986 0.010001491 0.022885567 -0.4231869
0.1119804 0.018531354 0.06588938 -0.027967691 0.07900875 -0.21215525 0.07777849 0.016532352
-0.02789761 0.15710492 -0.017802719 -0.006215829 0.0142920315 -0.0016287582 0.1293823 -0.06759418
-0.17117496 -0.2634035 0.04236154 -0.0057063685 0.04424648 -0.022850093 0.048315007 -0.24395242
0.035425972 0.05109976 0.10528803 0.12494307 0.07749924 -0.005275732 0.02998569 -0.07582848
-0.2181044 0.034229126 -0.08883671 0.14637485 -0.12029776 -0.0042915475 0.005113076 -0.06458261
0.016416948 0.22024465 0.042425107 0.07673595 -0.09152884 0.032249644 0.016454848 0.023396967
-0.008471271 -0.0068838783 0.108588494 -0.030855486 0.005204645 -0.057828225 0.25728622 -0.0016232844
0.027663358 -0.025035312 0.004242094 0.06326503 0.04175279 0.09316176 0.23541088 0.022537207
-0.024941746 -0.0351165 -0.013930517 0.020414632 0.004731672 0.060577378 -0.09092405 -0.05491159
0.065411456 0.04785274 0.032703705 0.0894193 -0.00019725051 0.09489242 0.015549858 -0.0948152
0.30805507 -0.025102925 -0.025601622 0.08199198 -0.010345216 0.023474433 0.07763723 0.04850762
0.08791887 0.011113194 0.19595525 -0.03643526 -0.023278927 -0.047540784 0.034788214 0.1592011
0.045295548 0.039374664 -0.3650016 0.07088925 0.010892214 0.02785909 0.030735081 0.042639844
0.20414382 0.0038568096 0.00963721 0.104612075 -0.00035196738 -0.0191744 -0.053895682 0.013335134
-0.08989641 -0.35558617 -0.014185038 -0.006876351 -0.120337024 -0.056226954 0.004010293 0.04471294
0.0017931269 0.051288597 0.33715323 0.17301889 0.16566303 0.17080158 0.061635636 -0.022221673
-0.0036103814 -0.011844687 0.03446769 -0.18473408 -0.08321592 -0.13769048 0.08166068 -0.14989859
0.058519844 0.003209035 0.007087433 0.028302146 0.091931224 0.036569744 0.030577013 0.09659475
0.22137624 0.008269517 0.0180953 -0.006473293 0.031941682 0.104841486 0.09302962 0.004463386
0.10159426 0.076099806 -0.008720576 -0.0069843223 -0.018011373 -0.035082195 0.06253525 -0.080747865
0.025132282 0.14154525 0.01802649 -0.022454849 0.012282781 -0.016023418 -0.073416434 0.15878482
0.23111564 0.0014088089 0.021545 0.035501286 0.03960194 -0.0060277344 0.0050709434 0.020918788
0.026911879 0.06272495 -0.034238286 0.02181638 -0.013458583 0.031504262 0.010035588 -0.0024918579
-0.0034364946 -0.0035994528 0.1263787 0.015535874 -0.020946063 0.0047419295 0.0018285274 0.031453326
0.03689202 -0.0084515745 0.069579445 0.02586294 0.016928349 0.007542876 0.093975425 -0.07236918
-0.08155901 -0.03898821 -0.011386834 0.12212474 -0.035963576 0.0059450585 0.03790638 -0.09695145
-0.013840999 0.002033114 -0.006268585 0.045788962 0.06191307 0.077225916 -0.008488861 0.03242518
0.031025369 -0.0563021 -0.0024749828 0.050066717 0.04831938 0.04323789 0.14629246 -0.008766221
-0.18273357 -0.3185513 0.030286066 0.0012476541 -0.021643229 -0.003016285 0.069326445 0.11322806
-0.0005853076 0.06505097 0.093193576 -0.04537405 -0.016763315 -0.037194315 -0.063642904 -0.034964606
-0.1286 -0.08330713 -0.017826049 0.0017354023 0.025096407 0.03966993 0.055114068 0.010667295
00000000: 60fa 19bc 1cfb 14bd 47c8 adbc 0d59 513c
00000010: d038 943d 4bdd 233c 837a bb3c f4ab d8be
00000020: fb55 e53d 11cf 973c 03f1 863d 801c e5bc
00000030: 57cf a13d 3a3f 59be 544a 9f3d db6e 873c
00000040: 8789 e4bc 1de0 203e 02d7 91bc 27ae cbbb
00000050: 2029 6a3c 0e7c d5ba cb7c 043e d16e 8abd
00000060: 7d48 2fbe d3dc 86be 4b83 2d3d 7dfc babb
00000070: cc3b 353d 1e30 bbbc f5e5 453d aace 79be
00000080: d31a 113d fb4d 513d 40a1 d73d 27e2 ff3d
00000090: ecb7 9e3d 0ce0 acbb 8da4 f53c f64b 9bbd
000000a0: c356 5fbe d733 0c3d 05f0 b5bd 4ae3 153e
000000b0: ac5e f6bd 1ca0 8cbb 978b a73b e343 84bd
000000c0: d67c 863c d087 613e f3c5 2d3d bd27 9d3d
000000d0: 7973 bbbd 3418 043d 51cc 863c ffaa bf3c
000000e0: 16cb 0abc 2892 e1bb a563 de3d a5c4 fcbc
000000f0: ba8b aa3b 4add 6cbd 05bb 833e 63c4 d4ba
00000100: 449e e23c db16 cdbc 4301 8b3b 1991 813d
00000110: f904 2b3d 98cb be3d 8d0f 713e f39f b83c
00000120: a252 ccbc 52d6 0fbd d33c 64bc 963c a73c
00000130: 240c 9b3b fc1f 783d 6336 babd faea 60bd
00000140: 71f6 853d 3c01 443d 52f4 053d 7721 b73d
00000150: 08d5 4eb9 f556 c23d d5c4 7e3c 792e c2bd
00000160: 65b9 9d3e a6a4 cdbc 7eba d1bc 69eb a73d
00000170: fb7e 29bc 744d c03c 4500 9f3d edaf 463d
00000180: cf0e b43d 1d14 363c 7ea8 483e 243d 15bd
00000190: 73b3 bebc 20ba 42bd 167e 0e3d 9d05 233e
000001a0: d387 393d 5447 213d 7de1 babe 622e 913d
000001b0: 4275 323c bf38 e43c 23c8 fb3c 1ea7 2e3d
000001c0: 140b 513e 87c2 7c3b 63e5 1d3c db3e d63d
000001d0: 4388 b8b9 a213 9dbc b8c1 5cbd 9b7b 5a3c
000001e0: 9c1b b8bd 640f b6be 5d68 68bc 0353 e1bb
000001f0: 4273 f6bd 3c4e 66bd c768 833b ea24 373d
00000200: 5b07 eb3a fe13 523d 599f ac3e dd2b 313e
00000210: 92a3 293e 9ce6 2e3e a675 7c3d 3a0a b6bc
00000220: 269c 6cbb 3810 42bc fe2d 0d3d ee2a 3dbe
00000230: 1c6d aabd bcfe 0cbe b73d a73d 047f 19be
00000240: 81b2 6f3d ac4e 523b b23d e83b e7d9 e73c
00000250: 7046 bc3d 28ca 153d a57c fa3c 78d3 c53d
00000260: 74b0 623e de7c 073c 983c 943c eb1d d4bb
00000270: 48d5 023d 22b7 d63d 5086 be3d 9841 923b
00000280: a710 d03d 37da 9b3d bfe0 0ebc bedc e4bb
00000290: 968c 93bc 59b2 0fbd 7b12 803d 235f a5bd
000002a0: 37e2 cd3c 3df1 103e 4aac 933c 3bf3 b7bc
000002b0: b83d 493c 8b43 83bc 5b5b 96bd 7d98 223e
000002c0: 94a9 6c3e c8a7 b83a 247f b03c cc69 113d
000002d0: a535 223d 4d84 c5bb 282a a63b e15d ab3c
000002e0: 4d76 dc3c f075 803d 723d 0cbd 44b8 b23c
000002f0: 6381 5cbc 9d0a 013d 4f6c 243c 704e 23bb
00000300: d036 61bb cce4 6bbb 6b69 013e 2e8a 7e3c
00000310: 1497 abbc 3062 9b3b 33ab ef3a 34d5 003d
00000320: 161c 173d 7978 0abc ab7f 8e3d 84de d33c
00000330: 52ad 8a3c 3b2a f73b 3076 c03d 4b36 94bd
00000340: 6908 a7bd 1ab2 1fbd d88f 3abc 891c fa3d
00000350: 8b4e 13bd c4ce c23b b843 1b3d 7b8e c6bd
00000360: 5cc5 62bc fe3d 053b b468 cdbb 358d 3b3d
00000370: 8f98 7d3d 9f28 9e3d dd14 0bbc 44d0 043d
00000380: ea28 fe3c 089d 66bd 5233 22bb c212 4d3d
00000390: 8bea 453d 371a 313d b1cd 153e 32a0 0fbc
000003a0: 821e 3bbe 2819 a3be 7c1a f83c 5388 a33a
000003b0: 244d b1bc ddac 45bb 06fb 8d3d 1de4 e73d
000003c0: 546f 19ba 7139 853d 46dc be3d 24da 39bd
000003d0: 3853 89bc 1159 18bd 3657 82bd 0c37 0fbd
000003e0: b8af 03be ee9c aabd ef07 92bc 7076 e33a
000003f0: fb96 cd3c f07c 223d 4abf 613d e1c5 2e3c

encoder.2.bias f4 [32]
0.11371894 0.047260024 0.008969645 0.056973502 0.13433266 0.09057114 0.16326529 -0.06184557
0.10778637 0.17897643 0.13008304 0.28394473 0.14550966 0.0915523 0.0153738065 -0.062236097
0.06998479 -0.06673415 0.063245274 0.05889697 0.17901044 0.14957938 -0.10553366 0.021495188
0.0035687014 -0.10343553 0.18392968 0.28285107 -0.07538672 0.145171 -0.13923669 0.14405748
00000000: 7ae5 e83d ba93 413d 6bf5 123c 0c5d 693d
00000010: 808e 093e 5d7d b93d 042f 273e c851 7dbd
00000020: 1abf dc3d 9945 373e 7d34 053e 3461 913e
00000030: 7c00 153e c67f bb3d 6be2 7b3c 47eb 7ebd
00000040: 3054 8f3d eaab 88bd bd86 813d f33d 713d
00000050: 834e 373e 562b 193e 0822 d8bd ad16 b03c
00000060: e0e0 693b 02d6 d3bd 1058 3c3e dbd1 903e
00000070: 5a64 9abd b5a7 143e 1094 0ebe ce83 133e

encoder.4.weight f4 [64, 32, 7, 7]
0.06708401 -0.014479118 0.007815741 -0.0048819105 0.0007195851 0.00050066516 0.011772995 -0.02213138
-0.031229202 -0.018748986 -0.038458087 0.009928336 0.025910128 0.0043086177 0.0076519 0.0014789747
-0.03184878 -0.019621978 0.14620392 0.0015130637 -0.03506153 -0.01287673 -0.058400203 -0.032354474
-0.07361545 -0.050845917 -0.03374506 0.02024303 -0.061390392 -0.026572948 0.047824033 -0.005859012
-0.019470941 -0.024341166 -0.037930027 0.036627423 -0.021963885 -0.002759516 -0.022511285 -0.0056529553
-0.012210342 -0.016202314 -0.00095541595 -0.04207865 0.11448098 -0.031336226 0.033197336 -0.011811768
0.04980073 0.015000836 -0.010005523 0.027254444 -0.04196746 -0.030918146 -0.015878722 -0.022297136
0.00402448 0.028763875 0.027126713 0.022522906 -0.023902936 -0.021448525 -0.048219673 0.007087498
-0.033592533 0.081386484 -0.03008872 -0.099779956 -0.039450686 -0.12854536 -0.014911895 -0.01936332
-0.025205586 0.015027121 -0.00868316 -0.008305883 0.0047139535 -0.08751219 0.04713181 -0.021879459
0.027170375 0.022699764 -0.03096847 0.01129403 0.015955726 -0.011759554 -0.030590583 -0.0054850383
-0.030863743 0.024175664 -0.017790526 -0.009841081 0.029024322 -0.092774294 -0.044247 0.04539981
-0.042354874 -0.0692541 0.0750646 -0.05956138 -0.0037467922 -0.027340889 0.017841248 0.019132538
0.03727863 0.028186657 -0.018279018 -0.009737216 -0.0074274265 0.017697223 0.02865985 0.013349709
0.029908288 0.015335481 0.034454543 0.0066629276 0.08812236 0.008964552 -0.0005589364 0.043070827
0.0011743164 0.015961587 0.0065672914 0.040016074 0.050378103 0.05876854 0.00042527428 0.07666701
0.059295047 0.03967541 0.043465734 -0.0029134406 0.017343285 0.016389826 -0.006177242 -0.0013824414
-0.0008901044 0.0064644683 -0.0044469736 -0.014254769 -0.014664378 0.014770322 0.057169076 0.00028713993
0.06266745 -0.030264914 0.040273465 -0.023316521 0.013852144 -0.040495645 -0.002247583 -0.04875942
0.0054224664 -0.0060726255 -0.012989402 -0.006278397 0.015292706 -0.00845899 0.0039794864 -0.004264572
-0.026526347 0.013473855 0.017973106 -0.08973776 -0.009977425 -0.020431831 0.014059127 0.052575078
-0.014065685 -0.010281586 0.015058365 -0.00673467 -0.02919401 -0.0055235345 -0.020224852 0.017482284
-0.040889412 0.022525674 -0.02237887 -0.028187327 0.018975211 -0.047159486 -0.0031887293 0.0022423675
-0.004680106 -0.029301878 -0.00094656914 -0.005025934 0.011244996 -0.009634754 -0.018698113 0.011797179
0.008261506 -0.10426718 0.041708183 -0.013682354 -0.056742035 0.010651219 -0.027865369 -0.017113911
-0.04521096 0.018353015 -0.009099466 0.013039511 0.006948298 0.012632834 -0.009118171 -0.018300835
0.0038970006 -0.012401337 0.0006108035 0.024936203 -0.020901922 -0.033329874 -0.10689433 0.008066818
0.014112931 -0.00044550927 -0.019611357 -0.021767823 -0.03846392 -0.03191365 0.0013720797 -0.041794088
0.027163371 -0.022105334 -0.00953926 -0.0143496655 -0.010146884 -0.006939507 -0.011833702 -0.022124514
-0.00014740201 -0.027324963 -0.017395176 -0.028520068 -0.012132956 -0.022063548 -0.008497343 -0.011306298
-0.03757752 -0.010120372 -0.1065782 0.026372733 -0.026353575 0.01931274 0.00076788577 -0.021298187
0.03980362 0.03957981 0.024613604 0.055600032 0.009468083 -0.03192099 -0.029363627 -0.016825141
00000000: 5763 893d d339 6dbc 980d 003c 6ff8 9fbb
00000010: 8aa2 3c3a 123f 033a 85e3 403c de4c b5bc
00000020: 62d4 ffbc 7997 99bc 3a86 1dbd 76aa 223c
00000030: 7a41 d43c 4e2f 8d3b cabc fa3b 28da c13a
00000040: de73 02bd 45be a0bc 7bb6 153e fe51 c63a
00000050: ae9c 0fbd ecf8 52bc 0d35 6fbd 2086 04bd
00000060: b2c3 96bd cf43 50bd 4338 0abd b6d4 a53c
00000070: 7e74 7bbd 83af d9bc 22e3 433d f4fc bfbb
00000080: 8681 9fbc 2067 c7bc 845c 1bbd a306 163d
00000090: 9bed b3bc ffd8 34bb 9669 b8bc 6d3c b9bb
000000a0: e30d 48bc b7ba 84bc e174 7aba aa5a 2cbd
000000b0: 0175 ea3d 6a5a 00bd eef9 073d 2586 41bc
000000c0: dafb 4b3d 11c6 753c 35ee 23bc b644 df3c
000000d0: 12e6 2bbd 0d48 fdbc 1814 82bc 7ca8 b6bc
000000e0: c9df 833b 38a2 eb3c d738 de3c f581 b83c
000000f0: 17d0 c3bc d1b4 afbc fe81 45bd 3e3e e83b
00000100: 5398 09bd f5ad a63d 9f7c f6bc 6f59 ccbd
00000110: 0b97 21bd 65a1 03be 0551 74bc d39f 9ebc
00000120: f27b cebc 5034 763c d043 0ebc 6615 08bc
00000130: 8277 9a3b 9739 b3bd 490d 413d 8d3c b3bc
00000140: 6894 de3c dbf4 b93c 97b1 fdbc 980a 393c
00000150: 95b5 823c 25ab 40bc 1a99 fabc d6bb b3bb
00000160: f6d5 fcbc 0b0c c63c 70bd 91bc 7c3c 21bc
00000170: 6ac4 ed3c 7300 bebd 583c 35bd 27f5 393d
00000180: 4e7c 2dbd 18d5 8dbd 78bb 993d a2f6 73bd
00000190: be8c 75bb 00fa dfbc cf27 923c d7bb 9c3c
000001a0: 7ab1 183d b4e7 e63c e1bd 95bc d888 1fbc
000001b0: c561 f3bb c4f9 903c 10c8 ea3c bdb8 5a3c
000001c0: 3a02 f53c ab41 7b3c 3520 0d3d b054 da3b
000001d0: 7f79 b43d 0ee0 123c 9685 12ba 096b 303d
000001e0: 85eb 993a e0c1 823c 6f32 d73b e5e7 233d
000001f0: 4559 4e3d 48b7 703d 59f7 de39 9803 9d3d
00000200: 5ddf 723d af82 223d 2009 323d 6cef 3ebb
00000210: 8113 8e3c f543 863c 766a cabb 0933 b5ba
00000220: e555 69ba e4d3 d33b ebb7 91bb d68c 69bc
00000230: dc42 70bc 38ff 713c 1f2a 6a3d 458b 9639
00000240: cb57 803d 20ee f7bc caf5 243d 4a02 bfbc
00000250: 1af4 623c c3de 25bd 2f4c 13bb f5b7 47bd
00000260: f2ae b13b e0fc c6bb 80d1 54bc 03bb cdbb
00000270: 428e 7a3c 9397 0abc 5a66 823b d3bd 8bbb
00000280: c84d d9bc 72c1 5c3c 563c 933c 6ec8 b7bd
00000290: 5b78 23bc a860 a7bc 4158 663c f758 573d
000002a0: c273 66bc 1974 28bc 5cb7 763c 82ae dcbb
000002b0: 4728 efbc c4fe b4bb 97ae a5bc 0237 8f3c
000002c0: a87b 27bd c387 b83c e453 b7bc 1ce9 e6bc
000002d0: e771 9b3c 4e2a 41bd 00fa 50bb aff4 123b
000002e0: 935b 99bb 7e0a f0bc 2e23 78ba 97b0 a4bb
000002f0: ef3c 383c 16db 1dbc c92c 99bc f448 413c
00000300: 455b 073c 088a d5bd 33d6 2a3d f42b 60bc
00000310: 566a 68bd 7382 2e3c ea45 e4bc 7932 8cbc
00000320: 212f 39bd 1059 963c ed15 15bc aca3 553c
00000330: 8cae e33b f2f9 4e3c 6264 15bc a2eb 95bc
00000340: d264 7f3b fa2e 4bbc 541e 203a 0247 cc3c
00000350: 823a abbc e884 08bd 6aeb dabd b02a 043c
00000360: ec39 673c 3e93 e9b9 ffa7 a0bc 6f52 b2bc
00000370: 588c 1dbd e3b7 02bd 5bd7 b33a 4730 2bbd
00000380: b885 de3c 3f16 b5bc 8e4a 1cbc dc1a 6bbc
00000390: 1e3f 26bc ce64 e3bb 25e2 41bc 783e b5bc
000003a0: ed8f 1ab9 9ad8 dfbc 5480 8ebc eba2 e9bc
000003b0: 4ec9 46bc 9dbe b4bc 7138 0bbc 0d3e 39bc
000003c0: e3ea 19bd ebcf 25bc ac45 dabd a10b d83c
000003d0: 74e3 d7bc c035 9e3c f14b 493a 8979 aebc
000003e0: 1f09 233d 701e 223d 78a2 c93c dcbc 633d
000003f0: 0520 1b3c 96bf 02bd fd8b f0bc e1d4 89bc

encoder.4.bias f4 [64]
-0.014587895 -0.0036133586 0.011787881 -0.00028089478 0.00043742155 0.00022503536 -0.0009917523 -0.012288878
-0.02689036 -0.018914923 0.008440894 -0.007075766 0.020805072 0.011808681 0.0077790995 -0.017120821
-0.0151267415 -0.00812804 -0.003240164 -0.0024661953 0.0046124673 0.020871902 0.020035109 -0.016224422
-0.007474087 -0.0051094647 -0.006580093 0.00047228797 -0.01177625 -0.0019011266 -0.011392189 0.005061507
0.007886371 0.016372213 0.011561605 -0.0028234897 0.0033066438 -0.00980552 -0.015720554 -0.01184622
-0.006170927 -0.0064717904 -0.05833887 0.083499834 0.020412836 -0.02636258 -0.013482885 0.012235432
0.016686063 0.022380613 0.002642809 -0.011123415 -0.0082173925 0.014448421 0.0015789792 0.009974941
0.0026647 -0.089489475 -0.008434791 -0.017701691 0.013611492 0.014549827 -0.007371891 -0.0015910675
00000000: 1102 6fbc 19ce 6cbb f521 413c 0f45 93b9
00000010: ba55 e539 78f7 6b39 affd 81ba 4a57 49bc
00000020: 2c49 dcbc 78f3 9abc ad4b 0a3c d4db e7bb
00000030: 666f aa3c 3379 413c d1e7 fe3b f740 8cbc
00000040: 27d6 77bc 782b 05bc ee58 54bb e49f 21bb
00000050: 2e24 973b 8dfb aa3c ab20 a43c 14e9 84bc
00000060: 30e9 f4bb 4c6d a7bb d29d d7bb 6b9d f739
00000070: 2cf1 40bc 392f f9ba 4ea6 3abc 00db a53b
00000080: d635 013c 051f 863c e36c 3d3c 4c0a 39bb
00000090: 47b4 583b 55a7 20bc 64c8 80bc a616 42bc
000000a0: 7d35 cabb 5011 d4bb bdf4 6ebd f601 ab3d
000000b0: d238 a73c 56f6 d7bc 52e7 5cbc 1f77 483c
000000c0: 36b1 883c 8c57 b73c fa32 2d3b fc3e 36bc
000000d0: 3ea2 06bc 12b9 6c3c c0f5 ce3a ef6d 233c
000000e0: 3fa2 2e3b 4246 b7bd 1432 0abc 2303 91bc
000000f0: bc02 5f3c 6662 6e3c e78f f1bb 5e8b d0ba

decoder.0.weight f4 [64, 32, 7, 7]
0.06301632 -0.032109775 0.010052685 -0.0033616545 -0.009225539 -0.0050149644 -0.0004663662 -0.02995385
0.059447356 -0.0069821817 0.012836064 0.039370317 0.0035698775 -0.048405938 -0.007044293 -0.05964258
-0.017163316 0.02150812 -0.048954457 -0.028774915 0.027299615 -0.042911284 0.017266817 -0.013774291
0.027962334 -0.00043413823 0.001364011 -0.066100284 0.0030224149 0.012444969 -0.020629274 -0.0026130658
-0.045178223 0.0068860594 -0.01185461 -0.011981066 -0.000539194 0.0096200295 0.03739167 0.022342293
0.041011684 0.035206277 -0.053940557 0.083829634 -0.116693 -0.011767556 -0.08971394 -0.021722386
-0.0917269 0.044649016 0.010273344 0.0067527476 -0.003843851 0.014897767 0.014713985 -0.066968225
-0.009945483 0.009327733 -0.007844523 -0.009342309 -0.0067654345 0.028626682 -0.06281508 0.059910554
0.008306152 0.004038589 0.018417932 0.018118607 0.027697047 -0.07858686 -0.0151511105 0.033042677
0.0024518077 -0.002930885 0.0138350995 0.012858606 -0.046673432 -0.051510487 -0.0026537785 0.009314436
0.012354557 0.0072998037 -0.00068208546 -0.01086056 -0.020901386 0.0031936078 -0.06549676 -0.0329767
-0.11095798 -0.05329927 -0.0018266261 -0.081340425 -0.051233027 -0.06699471 0.022951031 0.039813753
0.036564913 -0.11870277 -0.015492134 -0.01737621 0.004710038 0.0007797204 0.034862977 0.030827949
0.04373904 -0.0050287363 -0.0027945356 0.00073557394 -0.018723663 -0.052080378 -0.0070188036 0.011059932
-0.038747597 -0.0014133038 0.008030788 0.021530543 -0.0074418113 0.0038623048 0.012162888 0.03019612
-0.03495788 -0.01862628 -0.053784378 -0.04939509 -0.061453357 -0.010735797 0.009155313 -0.018913625
0.035522647 0.010932096 0.047238246 -0.02706603 -0.002246308 0.023149349 -0.0061213383 -0.01353764
-0.042579986 0.008196517 -0.04596819 -0.02021939 0.030419394 -0.020050133 -0.038762964 0.013601683
-0.04115134 -0.05885095 -0.020366328 0.05932606 -0.046542946 -0.053402994 -0.034056332 -0.0568942
0.018786777 0.013762426 0.0025601673 -0.013094015 -0.003908487 -0.00922158 0.0066150595 0.007146219
-0.010070919 0.028795037 -0.0030343903 -0.114180416 0.014039462 0.03439109 0.0126543185 0.055269465
-0.008613045 -0.010358078 0.004696384 0.008944567 -0.009786429 -0.003340138 0.016369926 -0.026842369
0.006718065 0.037734292 -0.0026021781 -0.030709172 0.016427556 -0.073426604 0.020381322 0.005469327
-0.0040554767 -0.020391673 -0.0058477065 0.00096305716 0.0014298755 0.0057140994 0.02414974 0.07649637
-0.016692692 -0.053164516 -0.03160893 -0.013255532 0.030260434 0.0820368 0.024824318 0.05643399
0.0440837 -0.024706692 0.03672416 0.032276984 -0.046956126 -0.023773815 -0.08118335 0.016422296
-0.014257345 0.0681186 0.0434338 0.07727363 -0.05893765 0.0643428 0.06942694 0.017947616
0.106369615 -0.0020744067 0.033480875 0.0039264453 -0.05296745 0.11157943 -0.031981602 -0.020706078
0.056325767 -0.12107446 -0.059079222 -0.03470079 -0.028202185 0.08571503 0.017125366 -0.0007613894
0.09090857 0.013901474 0.010626821 0.032544922 -0.043164168 0.006318013 0.03322829 -0.034229476
0.08108713 0.03131065 -0.001941482 0.047735143 0.043445442 0.17787248 -0.008380812 0.00030929947
-0.006927245 -0.0042551635 -0.028629199 0.084434025 0.05222133 0.0051556733 0.0041531534 0.012690497
00000000: b30e 813d 8a85 03bd 04b4 243c 344f 5cbb
00000010: b726 17bc 9254 a4bb 9d82 f4b9 c761 f5bc
00000020: 127f 733d c9ca e4bb 5b4e 523c c542 213d
00000030: 9bf4 693b 4e45 46bd d0d3 e6bb c74b 74bd
00000040: 159a 8cbc cc31 b03c 7884 48bd 5fb9 ebbc
00000050: 71a3 df3c bec3 2fbd 2473 8d3c 90ad 61bc
00000060: 4411 e53c 0c9d e3b9 9dc8 b23a 965f 87bd
00000070: b513 463b fce5 4b3c b9fe a8bc f83f 2bbb
00000080: cd0c 39bd 74a4 e13b d739 42bc 3c4c 44bc
00000090: b258 0dba 549d 1d3c 0228 193d 2f07 b73c
000000a0: defb 273d 7534 103d c6f0 5cbd dfae ab3d
000000b0: bdfc eebd b5cc 40bc f1bb b7bd 25f3 b1bc
000000c0: 50db bbbd e3e1 363d 8751 283c 2746 dd3b
000000d0: 1ee9 7bbb c415 743c ed12 713c a326 89bd
000000e0: 61f2 22bc 59d3 183c 5086 00bc 7c10 19bc
000000f0: 94b0 ddbb 8182 ea3c 31a5 80bd c564 753d
00000100: 8716 083c 2456 843b 34e1 963c 796d 943c
00000110: ebe4 e23c 26f2 a0bd 5d3c 78bc c257 073d
00000120: 82ae 203b 1714 40bb 9dac 623c e7ac 523c
00000130: a42c 3fbd a9fc 52bd 04eb 2dbb 949b 183c
00000140: c56a 4a3c 3133 ef3b fbcd 32ba 7ef0 31bc
00000150: 6239 abbc d94b 513b 2a23 86bd 9412 07bd
00000160: f03d e3bd 5650 5abd 676b efba cf95 a6bd
00000170: b9d9 51bd 8634 89bd cd03 bc3c bf13 233d
00000180: 17c5 153d 701a f3bd b8d2 7dbc 8e58 8ebc
00000190: aa56 9a3b 2666 4c3a 7bcc 0e3d e58a fc3c
000001a0: b527 333d 19c8 a4bb 8724 37bb 88d3 403a
000001b0: 5e62 99bc 3c52 55bd fefd e5bb b834 353c
000001c0: cdb5 1ebd 9b3e b9ba 9193 033c d260 b03c
000001d0: 70da f3bb b91e 7d3b da46 473c da5d f73c
000001e0: fe2f 0fbd 2496 98bc 024d 5cbd 8252 4abd
000001f0: 84b6 7bbd 32e5 2fbc 2a00 163c bff0 9abc
00000200: 3280 113d 891c 333c e47c 413d 94b9 ddbc
00000210: cb36 13bb b4a3 bd3c 8295 c8bb facc 5dbc
00000220: 5a68 2ebd af4a 063c 2449 3cbd 22a3 a5bc
00000230: 1832 f93c 2d40 a4bc eac5 1ebd 98d9 5e3c
00000240: 4f8e 28bd b20d 71bd 49d7 a6bc e2ff 723d
00000250: d1a3 3ebd 19bd 5abd a77e 0bbd e509 69bd
00000260: bae6 993c cc7b 613c 7bc8 273b 4888 56bc
00000270: c412 80bb 1c16 17bc 24c3 d83b d42a ea3b
00000280: 7f00 25bc 92e3 eb3c 9fdc 46bb 6cd7 e9bd
00000290: c605 663c acdd 0c3d 0f54 4f3c 3c62 623d
000002a0: bb1d 0dbc eeb4 29bc 20e4 993b 3c8c 123c
000002b0: 4257 20bc 37e6 5abb 391a 863c 87e4 dbbc
000002c0: 3723 dc3b 468f 1a3d 4e89 2abb cd91 fbbc
000002d0: 1593 863c b060 96bd bbf6 a63c 0a38 b33b
000002e0: cee3 84bb 700c a7bc 1e9e bfbb ac75 7c3a
000002f0: a96a bb3a 573d bb3b add5 c53c 21aa 9c3d
00000300: 1dbf 88bc 09c3 59bd 5e78 01bd bb2d 59bc
00000310: bbe4 f73c e902 a83d 5e5c cb3c 5427 673d
00000320: 1c91 343d b065 cabc 136c 163d df34 043d
00000330: 1155 40bd 4ec1 c2bc 7543 a6bd 0d88 863c
00000340: a497 69bc c481 8b3d a4e7 313d a341 9e3d
00000350: 9b68 71bd 28c6 833d b62f 8e3d e106 933c
00000360: 50d8 d93d c5f2 07bb 3e23 093d 69a9 803b
00000370: 66f4 58bd c283 e43d 24ff 02bd cb9f a9bc
00000380: d9b5 663d e3f5 f7bd 0efd 71bd 6a22 0ebd
00000390: 4508 e7bc 5d8b af3d 7f4a 8c3c fa97 47ba
000003a0: 462e ba3d 02c3 633c 1e1c 2e3c d34d 053d
000003b0: e9cc 30bd 5607 cf3b 631a 083d 3534 0cbd
000003c0: 0211 a63d 993f 003d 5379 feba ed85 433d
000003d0: d9f3 313d 3424 363e ac4f 09bc 7929 a239
000003e0: f1fd e2bb e66e 8bbb c887 eabc bfeb ac3d
000003f0: 09e6 553d ecf0 a83b 2d17 883b cdeb 4f3c

decoder.0.bias f4 [32]
0.008709653 0.034000088 -0.01686397 -0.124315925 0.01499041 0.030983549 -0.016264921 0.02508387
-0.010131138 0.027001422 0.043505218 0.009248374 0.096466884 0.01308072 0.051163945 0.025041036
-0.00644325 0.12987047 -0.0013925832 -0.042484466 0.0019363323 0.09115236 -0.05472941 0.19269302
0.024329295 0.040334176 0.048099034 0.20248531 0.026068274 -0.044701684 0.099923186 0.15331016
00000000: efb2 0e3c ad43 0b3d 4f26 8abc 5999 febd
00000010: 569a 753c 36d1 fd3c 033e 85bc b07c cd3c
00000020: 13fd 25bc 1632 dd3c 8732 323d 7e86 173c
00000030: 6e90 c53d 8450 563c 4991 513d dc22 cd3c
00000040: e621 d3bb c4fc 043e 5787 b6ba 3104 2ebd
00000050: 88cc fd3a 17ae ba3d f22b 60bd 5251 453e
00000060: 3b4e c73c 7335 253d 7e03 453d 4f58 4f3e
00000070: 228d d53c 1d19 37bd 87a4 cc3d 57fd 1c3e

decoder.2.weight f4 [32, 16, 3, 3]
-0.033629224 -0.027553583 0.006108422 0.19126599 0.020450452 -0.037900288 -0.07327023 -0.1947492
0.05311986 0.036434624 0.03829827 -0.008934976 0.058831666 0.050311424 0.02583318 -0.07922243
-0.08721883 -0.05880685 0.04048879 -0.018237261 0.031286888 0.036624573 0.058023576 0.05995491
-0.05847112 0.03734379 0.14048369 0.024439478 -0.019801864 0.059952427 0.015725119 -0.13927518
0.08626477 0.03806445 0.17127478 -0.0069392133 0.031501606 0.063766226 -0.028834771 0.08752931
0.105204225 -0.054151837 -0.08097449 -0.22451773 0.09856904 0.020299409 -0.018387921 0.039726265
-0.08895706 -0.099117115 -0.006581843 0.020749697 0.15444311 0.13327365 0.07423276 -0.02858648
-0.02170623 -0.15728033 -0.09296627 0.096249804 0.026678082 0.20986468 -0.11102029 -0.016692517
-0.011725354 -0.053227834 -0.044297814 0.16938363 -0.07105255 0.028987147 -0.01593261 -0.049221903
0.096423216 0.01668623 0.006638459 0.17266646 0.06088074 -0.01892652 -0.15856068 -0.043789547
0.21085154 0.04725339 0.011592137 0.03900701 0.07933817 0.08390243 0.015649162 -0.10015095
-0.033958327 0.15198807 -0.0097799925 -0.03653259 -0.003314597 0.11539296 -0.048305776 0.00056774623
-0.05629279 0.014854992 0.12584482 0.024576742 -0.04928453 -0.011542253 0.08901463 -0.0156107005
-0.0020579495 -0.045632295 0.015704691 0.07763687 -0.0035681736 0.033290792 -0.2306871 -0.013268601
0.11705242 -0.3255113 -0.028088467 -0.10343654 -0.3142114 -0.02812348 -0.009029091 -0.0783515
0.12932332 0.12637241 0.017640878 -0.1526684 -0.011433164 0.22517502 -0.001766244 -0.054262258
0.028306795 0.029666599 0.07103998 0.030918831 -0.018176492 0.025351854 -0.11864384 -0.040803332
-0.045432452 0.030180769 -0.17146717 0.01865958 0.02332466 0.083009265 0.122233026 -0.08182283
-0.0094003985 0.024168856 -0.038111117 -0.07863761 0.1013091 -0.110198006 0.08111027 0.10325783
-0.29274005 0.019077372 0.017028617 -0.1131697 -0.038534876 -0.033663467 -0.06810659 0.013055955
-0.052176464 -0.082808904 -0.034302197 0.056751873 -0.010387759 0.07143385 0.19077443 0.06411507
-0.021419011 -0.008984993 0.003120806 0.023860773 -0.019459818 -0.11381887 0.084255084 -0.030420586
-0.11808411 0.0459808 0.019014174 0.0715419 -0.025479399 0.06966696 0.03970194 0.0034577376
0.2101322 -0.041364294 0.0054566776 0.021827618 -0.30050325 -0.046659157 0.0060268487 0.047963206
0.12572512 0.06563112 -0.075249076 -0.016479658 0.076978624 0.16602832 -0.006473592 -0.05074557
0.0044781975 -0.0130674215 -0.17961313 0.28426877 -0.05784658 -0.032055162 0.34585586 0.009328833
0.008171267 0.07123967 -0.0847171 0.1456837 0.11117491 -0.07011061 0.114016876 0.11571993
0.01721738 0.10259544 -0.11191503 0.08838041 0.17391028 -0.29563293 0.016076965 -0.19610085
-0.4431989 -0.041646596 0.030574229 -0.03843598 0.04006914 0.15805209 -0.07390257 -0.052310824
-0.059407208 -0.19410048 -0.020696979 -0.028970586 -0.08679657 0.048141718 0.13966368 -0.057011817
0.071883135 0.06694684 -0.11664215 -0.014344249 0.013009071 -0.06936609 0.053510774 0.106722444
-0.2057746 0.063532926 -0.03906694 -0.043260872 -0.009613999 0.057198588 -0.025697544 -0.016246036
00000000: ccbe 09bd 0db8 e1bc 2829 c83b 3bdb 433e
00000010: b587 a73c 553d 1bbd b40e 96bd 566c 47be
00000020: 3694 593d 793c 153d a6de 1c3d 0164 12bc
00000030: 79f9 703d 5a13 4e3d 1ba0 d33c 5f3f a2bd
00000040: c99f b2bd 74df 70bd 93d7 253d 4f66 95bc
00000050: ae26 003d a603 163d 21aa 6d3d 4893 753d
00000060: 6a7f 6fbd cdf5 183d f5da 0f3e 4d35 c83c
00000070: 8537 a2bc ad90 753d f7d1 803c 279e 0ebe
00000080: 95ab b03d 78e9 1b3d a862 2f3e 5762 e3bb
00000090: d407 013d de97 823d e636 ecbc 9142 b33d
000000a0: 5075 d73d 51ce 5dbd f4d5 a5bd fae7 65be
000000b0: 91de c93d f24a a63c 44a2 96bc 02b8 223d
000000c0: 1e2f b6bd eafd cabd 80ac d7bb 45fb a93c
000000d0: 5626 1e3e e378 083e 5807 983d 322e eabc
000000e0: 43d1 b1bc 180e 21be 1a65 bebd 9e1e c53d
000000f0: fe8b da3c c4e6 563e 9b5e e3bd bfbe 88bc
00000100: b31b 40bc 6e05 5abd a071 35bd e772 2d3e
00000110: 0084 91bd 7476 ed3c 1b85 82bc e89c 49bd
00000120: 8979 c53d 90b1 883c 6e87 d93b 7acf 303e
00000130: 155e 793d ca0b 9bbc bb5d 22be ab5c 33bd
00000140: 77e9 573e c58c 413d f2ec 3d3c d1c5 1f3d
00000150: 0d7c a23d 0ad5 ab3d ac32 803c f11b cdbd
00000160: e317 0bbd c3a2 1b3e 433c 20bc 32a3 15bd
00000170: b639 59bb 2553 ec3d 47dc 45bd ced4 143a
00000180: 4593 66bd 5a62 733c 77dd 003e 2a55 c93c
00000190: 93de 49bd b81b 3dbc 4d4d b63d 06c4 7fbc
000001a0: aade 06bb eee8 3abd 20a7 803c 1400 9f3d
000001b0: 05d8 69bb ed5b 083d 3d39 6cbe 8c64 59bc
000001c0: 2eb9 ef3d 6ba9 a6be c919 e6bc 89d6 d3bd
000001d0: 51e0 a0be 3663 e6bc c1ee 13bc c076 a0bd
000001e0: 556d 043e c567 013e 9a83 903c 1b55 1cbe
000001f0: 2a52 3bbc 4894 663e 5081 e7ba 1a42 5ebd
00000200: a7e3 e73c 5e07 f33c 697d 913d 7d49 fd3c
00000210: dee6 94bc b1ae cf3c 8bfb f2bd 6521 27bd
00000220: 6117 3abd a93d f73c 1795 2fbe fadb 983c
00000230: 5b13 bf3c c300 aa3d 4f55 fa3d ba92 a7bd
00000240: 2104 1abc c4fd c53c 671a 1cbd c10c a1bd
00000250: 257b cf3d 7eaf e1bd 241d a63d d778 d33d
00000260: 06e2 95be 2648 9c3c 997f 8b3c 84c5 e7bd
00000270: bfd6 1dbd b4e2 09bd 787b 8bbd a5e8 553c
00000280: fdb6 55bd b797 a9bd 7680 0cbd a774 683d
00000290: 6b31 2abc e94b 923d 5f5a 433e c34e 833d
000002a0: ec76 afbc cb35 13bc 7086 4c3b ab77 c33c
000002b0: 326a 9fbc de19 e9bd ee8d ac3d 9834 f9bc
000002c0: 15d6 f1bd 5d56 3c3d 9dc3 9b3c 8f84 923d
000002d0: 2cba d0bc 8dad 8e3d 809e 223d 369b 623b
000002e0: e52c 573e 9b6d 29bd eecd b23b d5cf b23c
000002f0: 90db 99be ac1d 3fbd df7c c53b 1175 443d
00000300: 16be 003e 9c69 863d 301c 9abd 5900 87bc
00000310: f8a6 9d3d 5403 2a3e 6d20 d4bb 96da 4fbd
00000320: d8bd 923b bd18 56bc 81ec 37be ad8b 913e
00000330: 89f0 6cbd 464c 03bd 0514 b13e f6d7 183c
00000340: c7e0 053c 1be6 913d 2980 adbd 1c2e 153e
00000350: acaf e33d 2796 8fbd ae81 e93d 92fe ec3d
00000360: 770b 8d3c 8f1d d23d b533 e5bd ca00 b53d
00000370: 8915 323e 335d 97be d7b3 833c a9ce 48be
00000380: f7ea e2be 9f95 2abd ce76 fa3c 0c6f 1dbd
00000390: 8a1f 243d 68d8 213e 3b5a 97bd e043 56bd
000003a0: f954 73bd 47c2 46be b68c a9bc b953 edbc
000003b0: 66c2 b1bd 4030 453d ff03 0f3e 3985 69bd
000003c0: 7737 933d 6d1b 893d 14e2 eebd 2404 6bbc
000003d0: 0024 553c cf0f 8ebd 1d2e 5b3d 4c91 da3d
000003e0: 94b6 52be 8d1d 823d a804 20bd 5032 31bd
000003f0: 0984 1dbc 1149 6a3d a883 d2bc 6816 85bc

decoder.2.bias f4 [16]
-0.031886883 0.017415747 0.19105329 -0.0939031 -0.10647801 -0.06965201 -0.3011288 0.09048324
-0.25842956 0.09461318 0.2232651 0.012285555 -0.09734215 -0.0747821 0.1015607 -0.22676499
00000000: d29b 02bd 78ab 8e3c 79a3 433e 4550 c0bd
00000010: 2511 dabd b7a5 8ebd 8e2d 9abe 474f b93d
00000020: e150 84be 8ec4 c13d 9b9f 643e 5a49 493c
00000030: 525b c7bd 5c27 99bd 0eff cf3d 1535 68be

decoder.4.weight f4 [16, 3, 3, 3]
-0.3517372 -0.51512146 -0.31832683 -0.40910965 -0.57232857 -0.42029408 -0.20309028 -0.2484314
-0.18576512 -0.36296287 -0.5664452 -0.34828657 -0.46604657 -0.602241 -0.4914782 -0.201021
-0.27144593 -0.19235066 -0.35810757 -0.52728117 -0.31838465 -0.4401997 -0.49383786 -0.41932556
-0.23904806 -0.29387856 -0.21531153 -0.014093974 -0.032472204 -0.033785816 -0.061132036 -0.048671406
-0.021389712 -0.048508827 -0.03167755 0.0037175552 -0.028069738 -0.06141194 -0.038840584 -0.071743175
-0.079712585 -0.033081766 -0.05956673 -0.054742772 -0.0026723782 -0.06348004 -0.26721582 -0.25963932
-0.21043663 -0.7513169 -0.60813844 -0.24817288 -0.69966894 -0.55875915 0.059076153 0.14336604
0.10136519 0.1035391 0.1544482 0.11574803 0.009239122 -0.066473 -0.02429787 0.022506244
-0.045426447 -0.047081403 -0.059635602 -0.5300004 -0.3972773 -0.12453765 -0.56213623 -0.3933751
0.05409201 0.11943661 0.08030322 0.07704412 0.04187388 0.03558981 -0.01051414 -0.16296573
-0.10454813 0.064635664 0.04508171 -0.15270928 0.28455034 0.49843615 -0.049004126 0.28189766
0.5681224 0.14711185 0.034799285 -0.05518261 -0.22594677 0.21022792 0.20430012 -0.2802302
0.23481964 0.3737832 -0.0056086048 0.0011905266 -0.14032876 -0.29953587 0.18107894 0.05579575
-0.40589696 0.22037774 0.2923297 -0.07755719 -0.030444324 -0.05208089 0.057120737 -0.6024299
-0.78535694 -0.09462427 -0.501151 -0.90443724 -0.11547626 -0.037785035 -0.044282604 0.04754112
-0.5417857 -0.73271435 -0.051221244 -0.5762255 -0.8766023 -0.116385475 -0.074192785 -0.05722443
0.022743702 -0.36555162 -0.459558 -0.030261124 -0.22876331 -0.34992123 -0.07155322 0.11763341
0.16406296 0.021687713 0.14019461 0.20230886 -0.05654583 -0.083104916 -0.2436593 -0.26507264
0.16293909 0.2762712 0.082924455 0.23064825 0.52087283 0.16177747 -0.03646471 -0.043058183
-0.1275535 0.19498955 0.35711342 0.117274106 0.2851643 0.67397434 0.23140465 -0.011000818
0.024691945 -0.10298869 0.06601862 0.1439867 0.22276706 0.19029397 0.25206882 0.3843668
0.1971241 0.28027672 0.2588203 0.07926993 0.19728749 0.2705327 0.2587408 0.46153778
0.5500807 0.24378417 0.41956398 0.37638783 0.08949564 0.20658311 0.2869201 0.27346787
0.43899116 0.53554344 0.2505019 0.40799215 0.37567672 -0.26480442 -0.49539545 0.0023017607
-0.33881298 -0.7057189 0.15324093 -0.010483603 -0.068690516 0.22972433 -0.27486625 -0.50517327
0.011701627 -0.3594622 -0.7481993 0.1023757 -0.0132879745 -0.10752121 0.18676293 -0.26763391
-0.4879183 0.04644091 -0.36944917 -0.74501276 0.12813155 -0.011118062 -0.11303517 0.20862253
0.03138523 -0.06392176 -0.08843597 -0.0077563142 -0.29682785 -0.28333122 -0.016622206 -0.24428432
-0.21374397 -0.005534507 -0.15728451 -0.14971425 -0.083516136 -0.6987697 -0.8099126 -0.048072845
-0.70726055 -0.8604048 0.024262264 -0.11573314 -0.07291842 -0.06695216 -0.6873173 -0.7483915
-0.025502866 -0.67267627 -0.6131167 0.05710661 0.072849356 0.087357484 0.046346817 -0.028493924
0.023535661 -0.024505936 -0.15503843 -0.09647739 0.03220428 0.051990885 0.08434087 0.045977574
00000000: e616 b4be 00df 03bf bcfb a2be d276 d1be
00000010: 2084 12bf c930 d7be e6f6 4fbe cd64 7ebe
00000020: 3639 3ebe 45d6 b9be 8d02 11bf 9e52 b2be
00000030: a89d eebe 772c 1abf 08a3 fbbe 73d8 4dbe
00000040: f6fa 8abe 92f7 44be e059 b7be e6fb 06bf
00000050: 5003 a3be db61 e1be 51d8 fcbe d7b1 d6be
00000060: 04c9 74be 4077 96be a07a 5cbe 69ea 66bc
00000070: 9301 05bd ff62 0abd 9665 7abd ab5b 47bd
00000080: 7a39 afbc 31b1 46bd 52c0 01bd 3aa2 733b
00000090: 82f2 e5bc 168b 7bbd 4e17 1fbd 16ee 92bd
000000a0: 5a40 a3bd bf80 07bd 3efc 73bd f539 60bd
000000b0: 1123 2fbb d301 82bd 83d0 88be 72ef 84be
000000c0: b37c 57be 4e56 40bf f6ae 1bbf 0821 7ebe
000000d0: 811d 33bf d70a 0fbf d6f9 713d 8cce 123e
000000e0: 8e98 cf3d 4f0c d43d ab27 1e3e 4e0d ed3d
000000f0: b05f 173c ff22 88bd 540c c7bc 045f b83c
00000100: 1511 3abd 6ed8 40bd 7644 74bd 1bae 07bf
00000110: ee67 cbbe 980d ffbd 29e8 0fbf 7668 c9be
00000120: 958f 5d3d 2e9b f43d 0476 a43d 4fc9 9d3d
00000130: f283 2b3d 9fc6 113d 8043 2cbc 7de0 26be
00000140: 541d d6bd b45f 843d 99a7 383d d25f 1cbe
00000150: 95b0 913e 0633 ff3e 8db8 48bd e454 903e
00000160: 7870 113f 7da4 163e b289 0e3d 2907 62bd
00000170: 975e 67be fd45 573e 0d34 513e 557a 8fbe
00000180: 8f74 703e 8360 bf3e 63c8 b7bb 720b 9c3a
00000190: 58b2 0fbe c45c 99be c26c 393e 168a 643d
000001a0: bad1 cfbe b4aa 613e 3dac 953e 4ed6 9ebd
000001b0: 6066 f9bc c552 55bd 6ff7 693d d938 1abf
000001c0: 270d 49bf 5fca c1bd 6f4b 00bf 3389 67bf
000001d0: d17e ecbd 7bc4 1abd ad61 35bd 7aba 423d
000001e0: 78b2 0abf 2b93 3bbf 5ecd 51bd 8483 13bf
000001f0: 0269 60bf 825b eebd 63f2 97bd 2a64 6abd
00000200: 0051 ba3c 9529 bbbe 304b ebbe 2de6 f7bc
00000210: ee40 6abe e028 b3be 7f8a 92bd c9e9 f03d
00000220: 1f00 283e 6eaa b13c 2d8f 0f3e 0e2a 4f3e
00000230: 9a9c 67bd e932 aabd d381 79be 9ab7 87be
00000240: 81d9 263e 6b73 8d3e 4cd4 a93d 0e2f 6c3e
00000250: ec57 053f fea8 253e 055c 15bd c75d 30bd
00000260: 629d 02be 57ab 473e 92d7 b63e 682d f03d
00000270: 0e01 923e 9589 2c3f 57f5 6c3e c63c 34bc
00000280: c346 ca3c bceb d2bd c534 873d 4071 133e
00000290: 0c1d 643e 6cdc 423e 2a0f 813e bacb c43e
000002a0: e6da 493e 6e80 8f3e 1884 843e 4658 a23d
000002b0: bb05 4a3e 4383 8a3e ad79 843e ae4e ec3e
000002c0: 17d2 0c3f 8fa2 793e 17d1 d63e e8b5 c03e
000002d0: 7d49 b73d 868a 533e 31e7 923e fb03 8c3e
000002e0: 73c3 e03e 6019 093f c941 803e 59e4 d03e
000002f0: b358 c03e 7294 87be 79a4 fdbe 23d9 163b
00000300: e578 adbe fea9 34bf 31eb 1c3e 6bc3 2bbc
00000310: 9dad 8cbd db3c 6b3e 45bb 8cbe 0953 01bf
00000320: 2eb8 3f3c 6e0b b8be fd89 3fbf 5aaa d13d
00000330: ceb5 59bc 1534 dcbd c83e 3f3e 5007 89be
00000340: 6dd0 f9be d338 3e3d 7128 bdbe 28b9 3ebf
00000350: eb34 033e 8828 36bc fc7e e7bd 25a1 553e
00000360: cd8d 003d 69e9 82bd eb1d b5bd ae28 febb
00000370: d2f9 97be ca10 91be 4b2b 88bc ab25 7abe
00000380: b3df 5abe cf5a b5bb 310f 21be b14e 19be
00000390: 820a abbd 92e2 32bf 6f56 4fbf 08e8 44bd
000003a0: 070f 35bf 7d43 5cbf a8c1 c63c 7f05 edbd
000003b0: 4156 95bd 371e 89bd 07f4 2fbf 9696 3fbf
000003c0: 63eb d0bc 8334 2cbf 37f5 1cbf 9fe8 693d
000003d0: 0b32 953d 7be8 b23d 29d6 3d3d 176c e9bc
000003e0: dccd c03c acc0 c8bc 65c2 1ebe f095 c5bd
000003f0: a3e8 033d 65f4 543d e8ba ac3d fb52 3c3d

decoder.4.bias f4 [3]
-0.21755107 -0.3467178 0.0187374
00000000: b5c5 5ebe ff84 b1be 2d7f 993c
